results/model.pth (torch, 90673 bytes, 8 tensors)

conv1.weight f4 [10, 1, 5, 5]
0	0xbdf35c2c	-0.11882815
1	0x3d732a5a	0.05936656
2	0x3d80853c	0.062754124
3	0x3dba87b5	0.09107915
4	0xbb7ac4a5	-0.0038264182
5	0xbdd995cf	-0.10624277
6	0x3e1c7bca	0.15281597
7	0x3d2d5956	0.042321526
8	0x3e1109a3	0.14163832
9	0xbd12986a	-0.035789885
10	0x3e288004	0.16455084
11	0xbdb40b62	-0.087912336
12	0x3c03394b	0.008009265
13	0x3cebc921	0.02878243
14	0x3dd2694f	0.10273992
15	0xbb2cc167	-0.0026360394
16	0x3db53073	0.088471316
17	0xbe1fa190	-0.15588975
18	0x3e36e3a9	0.17860283
19	0x3e3019ec	0.17197388
20	0x3d0020a1	0.031281117
21	0x3e0cf4eb	0.13765304
22	0xbe2d8a85	-0.16947372
23	0xbe26c2c4	-0.16285235
24	0x3d71c78d	0.059028197
25	0xbdaf97a3	-0.08573844
26	0xbdd4b5b4	-0.103862196
27	0x3e37a207	0.17932902
28	0x3e2e512a	0.17023149
29	0x3d8c55a1	0.0685227
30	0x3d84818d	0.06470022
31	0x3d75348e	0.059864573
32	0x3d69a6c6	0.057043813
33	0xbd6c4af0	-0.057688653
34	0xbdb007fb	-0.08595272
35	0xbe1ee79a	-0.15518036
36	0xbdf1ce09	-0.11806876
37	0x3e39eae5	0.18156011
38	0xbdd7f50f	-0.10544788
39	0x3e39e15c	0.18152374
40	0xbd938df0	-0.07204807
41	0xbe00b53f	-0.1256914
42	0xbe28e988	-0.16495335
43	0xbdddd112	-0.108308926
44	0xbddbe8a5	-0.10737733
45	0xbd74ea90	-0.05979401
46	0xbe4a8550	-0.19777417
47	0x3de93785	0.11387543
48	0xbcf8858a	-0.030337114
49	0xbe2fddf9	-0.1717452
50	0x3e0a9ade	0.1353564
51	0x3df145d3	0.11780896
52	0x3e220d04	0.15825278
53	0x3e29dddf	0.16588543
54	0x3dde5954	0.10856882
55	0xbd29d4f7	-0.041462865
56	0x3dfc4943	0.12318661
57	0xbbb7f95d	-0.005614443
58	0x3e2090b9	0.15680207
59	0xbe1d50a5	-0.15362795
60	0x3d2d3ea6	0.042296074
61	0xbd0ef97d	-0.0349059
62	0x3d2e6ab6	0.042582236
63	0xbe46ac97	-0.19401775
64	0x3e0a14db	0.13484518
65	0xbd6c0f0b	-0.057631534
66	0x3c0dc38b	0.008652578
67	0x3d57cf19	0.052687738
68	0x3d0c02d5	0.03418239
69	0xbccb9d7c	-0.024855368
70	0x3e152210	0.14563775
71	0xbdfd1713	-0.12357917
72	0xbe44c372	-0.19215181
73	0x3dbd5c9b	0.09246179
74	0xbcf6c5b1	-0.030123563
75	0x3e47b045	0.19500835
76	0xbdacb6b4	-0.08433285
77	0xbd5a3db8	-0.053281516
78	0x3d5ec87d	0.05439042
79	0xbe4a5e78	-0.197626
80	0xbd8b23d1	-0.06793941
81	0xba936fa7	-0.0011248485
82	0xbc0f9760	-0.008764118
83	0xbe3021c7	-0.17200385
84	0xbda0f899	-0.07859916
85	0xbdbc4959	-0.091936775
86	0xbe1b2239	-0.15149774
87	0x3e49391f	0.19650696
88	0x3dea8bf8	0.11452478
89	0xbe3383ec	-0.17530793
90	0xbe08009c	-0.13281482
91	0xbc18cb4f	-0.009325816
92	0xbd89e4e9	-0.06733114
93	0x3e204600	0.15651703
94	0x3e0c44bf	0.136981
95	0x3c72f670	0.014829263
96	0x3dbe8359	0.09302396
97	0xbc5fa0eb	-0.013649206
98	0x3cf929c5	0.030415425
99	0xbe1aa735	-0.15102847
100	0xbe248a43	-0.16068368
101	0x3d04ec23	0.03245176
102	0xbe43c093	-0.1911643
103	0x3d4c3298	0.049852937
104	0xbde06d6d	-0.10958371
105	0x3d43100a	0.047622718
106	0x3db78401	0.089607246
107	0xbde6ffb9	-0.11279244
108	0xbda18b71	-0.078879245
109	0xbdba4bc9	-0.09096486
110	0x3e0ccadc	0.1374926
111	0xbe1a05a1	-0.1504121
112	0xbbc3bc6d	-0.00597339
113	0xbd8a5b7b	-0.0675573
114	0x3e3f9ccc	0.18712157
115	0xbe044ba9	-0.12919487
116	0x3da77ac6	0.08177714
117	0xbca57294	-0.020196237
118	0xbe2114c7	-0.15730582
119	0x3e2d5c78	0.16929805
120	0x3dfd5e71	0.12371529
121	0xbe3fcc00	-0.18730164
122	0xbd186d19	-0.03721342
123	0x3c76b4b3	0.0150577305
124	0x3dbd0945	0.09230284
125	0xbe1927b7	-0.14956556
126	0xbd7d9d44	-0.06191756
127	0xbd99f70d	-0.07517824
128	0x3e1eded1	0.15514685
129	0x3da3241d	0.079658724
130	0xbe2e0b9e	-0.16996619
131	0xbdbbba54	-0.09166399
132	0xbcd564ff	-0.026049135
133	0x3da25397	0.079261
134	0x3ce69265	0.028145978
135	0x3dfdbb58	0.123892486
136	0xbe3f8a8f	-0.187052
137	0x3da7ab7d	0.08187006
138	0x3e33a9b5	0.17545207
139	0xbe4a65ab	-0.19765346
140	0x3e006f34	0.1254242
141	0x3e149207	0.1450883
142	0xbe39dd4d	-0.18150826
143	0x3e490abf	0.19633006
144	0x3df5cc65	0.12001876
145	0xbd940ca0	-0.072289705
146	0xbe06a98c	-0.13150615
147	0x3dd1966b	0.10233768
148	0xbe443482	-0.19160655
149	0x3dbc86fb	0.09205433
150	0xbc725fe7	-0.014793373
151	0x3e0f7429	0.14009155
152	0xbdf24a1a	-0.1183054
153	0x3d932963	0.07185628
154	0x3e339171	0.1753595
155	0x3dbfb39b	0.09360429
156	0x3e08d2eb	0.13361709
157	0xbda87440	-0.08225298
158	0xbe3ec3e0	-0.18629408
159	0x3e238014	0.15966827
160	0xbd24c06a	-0.040222563
161	0x3d48fba7	0.04906812
162	0x3d6d6aa0	0.057963014
163	0xbe40341b	-0.18769877
164	0x3e215907	0.15756617
165	0xbd6ae1bb	-0.05734418
166	0x3d99f33f	0.07517099
167	0xbd84efc5	-0.06491045
168	0x3e368a8b	0.17826287
169	0x3dc336e9	0.09531958
170	0xbe2398b7	-0.15976225
171	0x3df52781	0.119704254
172	0x3e4699fc	0.19394678
173	0xbcd934af	-0.02651438
174	0xbe1aeb98	-0.15128934
175	0x3c91b784	0.017787702
176	0x3d901d69	0.070368595
177	0xbe2c0ca2	-0.16801694
178	0x3dd3a4c0	0.10334158
179	0x3e3e2b13	0.18571119
180	0xbe42902d	-0.19000311
181	0x3d83542e	0.064125404
182	0xbd34a4fe	-0.04410266
183	0x3e223e28	0.15844023
184	0x3a92a99a	0.0011189461
185	0xbdeb29c0	-0.114825726
186	0x3d74742b	0.0596811
187	0xbe1eb289	-0.15497793
188	0x3dda1840	0.106491566
189	0x3d892d1a	0.066980556
190	0x3e368ef5	0.17827971
191	0xbaab5ca6	-0.0013073876
192	0x3e204e7e	0.15654942
193	0xbe3e041e	-0.18556258
194	0x3e22d54a	0.15901676
195	0x3cd5d3ca	0.026101965
196	0x3dc01711	0.093793996
197	0x3caf5e27	0.0214072
198	0xbe3d3211	-0.1847613
199	0x3e11839f	0.14210366
200	0xbe28f392	-0.16499165
201	0xbd995593	-0.07487025
202	0x3e1deeec	0.15423173
203	0x3ce26cf3	0.027639842
204	0xbd9ba25b	-0.07599326
205	0x3e3c6e95	0.18401559
206	0x3e2ba87a	0.16763487
207	0xbd505eea	-0.050871767
208	0xbd86d673	-0.06583872
209	0x3e2d18db	0.16904013
210	0x3d073df2	0.03301806
211	0x3e2b3284	0.16718489
212	0x3d9a6046	0.07537894
213	0xbc699a93	-0.014258045
214	0x3e177f90	0.14794755
215	0xbd980994	-0.07423702
216	0xbd195040	-0.037430048
217	0xbb8ae4a2	-0.004238681
218	0x3db7cc94	0.08974567
219	0x3d6604a3	0.056156766
220	0x3cc3b04f	0.023887781
221	0x3b721e5f	0.0036944372
222	0xbc8ead93	-0.017416751
223	0xbe357997	-0.17722164
224	0xbd6dcb8d	-0.05805545
225	0xbd42b9fa	-0.047540642
226	0xbe2f1c07	-0.17100535
227	0x3dd70e23	0.10500743
228	0x3d6b71c5	0.057481546
229	0xbe015386	-0.12629518
230	0xbe194fe3	-0.1497188
231	0x3dec2431	0.115303405
232	0xbe0a0d62	-0.13481668
233	0x3d5e6908	0.054299384
234	0xbe240b51	-0.16019942
235	0x3d53615e	0.05160653
236	0x3e27bbde	0.1638026
237	0x3e21f934	0.1581772
238	0xbdf249b5	-0.11830465
239	0x3e31b9ee	0.17356083
240	0xbc60a791	-0.013711826
241	0xbe17a5ae	-0.14809296
242	0x3be0412b	0.006843706
243	0x3d8b87d5	0.06813017
244	0x3e0203e5	0.12696798
245	0x3d12e6fe	0.035864823
246	0x3e3a1cec	0.18175095
247	0x3e40f314	0.18842727
248	0xbe477b6c	-0.19480675
249	0xbd9eee66	-0.07760315

conv1.bias f4 [10]
0	0x3e426bea	0.18986478
1	0xbe03c260	-0.12867117
2	0xbda0fb8c	-0.07860479
3	0xbc2bd1a5	-0.010486995
4	0x3e294cea	0.16533247
5	0xbdb9ec3a	-0.0907826
6	0xbca602d9	-0.02026503
7	0xbe3dc1cb	-0.18530957
8	0x3d59c1b1	0.053163234
9	0xbd75751f	-0.05992615

conv2.weight f4 [20, 10, 5, 5]
0	0x3d5aa87e	0.053383343
1	0xbc250afd	-0.010073421
2	0xbd563b4c	-0.052302644
3	0xbd2846e6	-0.04108324
4	0x3d7444f8	0.059636086
5	0x3a5c5412	0.00084048614
6	0xbd5163ca	-0.051120557
7	0xbd179b47	-0.03701332
8	0x3ce396c8	0.027781859
9	0xbbcd1bec	-0.006259432
10	0xbb93327d	-0.0044921027
11	0xba8c6144	-0.001071014
12	0xbc05a537	-0.008157066
13	0xbd6d9275	-0.058001
14	0x3ceb81b3	0.028748369
15	0xbd59b8de	-0.05315482
16	0x3d8033f3	0.062599085
17	0xbbdc37b3	-0.006720507
18	0xbbec0e32	-0.0072038407
19	0xbd283c21	-0.04107297
20	0x39977ab0	0.00028892374
21	0xbd517d22	-0.051144727
22	0xbd171571	-0.036885682
23	0x3ca0fbdc	0.019651346
24	0x3d1cd8dd	0.038292754
25	0xbcd56913	-0.02605108
26	0xbd13948b	-0.036030333
27	0xbc9fc97b	-0.019505253
28	0x3d05cb16	0.03266438
29	0xbd8159d3	-0.06315961
30	0xbbb4fff1	-0.0055236747
31	0x3d592797	0.05301627
32	0x3d3e012a	0.04638783
33	0xbd006f10	-0.031355917
34	0xbd343da3	-0.044004094
35	0xbcf4dc7b	-0.02989029
36	0xbbcc2019	-0.0062294123
37	0xbd76728f	-0.060167845
38	0xbd1ed58b	-0.03877787
39	0xbd604a81	-0.054758552
40	0x3c992615	0.018694917
41	0x3be9fd89	0.0071408194
42	0xbd583d79	-0.052793
43	0x3d4ef3d9	0.05052552
44	0xbd19a18e	-0.037507586
45	0x3d3d6269	0.04623643
46	0x3caa3e27	0.02078159
47	0x3d5b1538	0.053487033
48	0x3d25ba87	0.04046109
49	0xbd054e2a	-0.032545246
50	0xbc341507	-0.010991341
51	0x3d3cd5e0	0.046102405
52	0xbd4e4459	-0.05035815
53	0xbc3a209e	-0.011360316
54	0xbd6bb8a8	-0.05754915
55	0x3d4c3ca3	0.049862515
56	0x3d15a57b	0.036534768
57	0xbd5ed03f	-0.054397818
58	0xbbd56f76	-0.0065135313
59	0x3d4d540a	0.050128974
60	0x3d50a0ab	0.050934475
61	0x3bf08885	0.007340493
62	0xbd7de429	-0.06198517
63	0xbcc190c9	-0.02362861
64	0x3c0f1159	0.008732163
65	0x3d45e679	0.0483155
66	0x3d64703f	0.05577111
67	0xbd4daa94	-0.050211504
68	0xbb89157f	-0.0041834707
69	0xbd2bcb02	-0.04194165
70	0x39b7849f	0.0003500329
71	0xbcffa973	-0.03120873
72	0xbc99138a	-0.018686075
73	0x3ab3e5dc	0.001372512
74	0x3d3b30f0	0.045700967
75	0x3cf06747	0.029346121
76	0x3ceb9fd8	0.028762743
77	0x3c3d405e	0.011550991
78	0xbd817e02	-0.06322862
79	0x3d7030e5	0.05864038
80	0xbd692928	-0.056924015
81	0x3d3e4abf	0.046458002
82	0x3cdd682c	0.027027212
83	0x3cbd2b7b	0.023092022
84	0xbca083f2	-0.019594166
85	0x3b17f27e	0.0023185308
86	0xbd6c2404	-0.057651535
87	0x3d11a5e1	0.035558585
88	0x3d7f80c7	0.06237867
89	0x3ce3bf86	0.027801286
90	0x3c871ca2	0.016493145
91	0xbd10799c	-0.035272226
92	0xbd7258fa	-0.059166886
93	0x3c97a1ad	0.01850971
94	0x3d3664e6	0.044529818
95	0xbd68457e	-0.056706898
96	0xbd4837da	-0.04888139
97	0xbd7fde13	-0.062467646
98	0x3ba6a422	0.005085484
99	0xbc35768c	-0.011075627
100	0x3c99e7b8	0.01878725
101	0x3c3a1a3a	0.011358792
102	0x3d2c8c55	0.04212602
103	0xbd1b7ec7	-0.0379627
104	0xbc079ea8	-0.008277573
105	0x3d03b6d1	0.03215677
106	0x3d452134	0.048127368
107	0x3d4ec6d3	0.050482582
108	0xbd46b207	-0.048509624
109	0x3b58f047	0.00331022
110	0xbd002487	-0.031284835
111	0x3bc290de	0.0059376797
112	0xbd31ca9d	-0.043406118
113	0xbd7fc3cb	-0.062442582
114	0xbd15f4a1	-0.03661025
115	0x3d061aa3	0.032740247
116	0x3d128c0f	0.0357781
117	0xbcfaf217	-0.030633016
118	0x3d37f7f3	0.044914197
119	0x3b68651b	0.0035460654
120	0x3d6bcb9b	0.05756722
121	0x3c914321	0.017732205
122	0x3cec0db2	0.028815124
123	0xb9e92d58	-0.00044475007
124	0x3cd5d77f	0.026103733
125	0xbd80a0b8	-0.06280655
126	0xbd3f5c03	-0.04671861
127	0xbcf9fe76	-0.030516844
128	0xbd09aa81	-0.03360987
129	0xbc87cb67	-0.016576482
130	0xbd6fbb5e	-0.058528297
131	0x3cfc40fe	0.03079271
132	0xbc8886f3	-0.016665911
133	0xbd08a1c8	-0.03335741
134	0x3c3dd22c	0.011585753
135	0x3af31d4a	0.0018548158
136	0xbd774b7c	-0.060374722
137	0xbc96c641	-0.018405082
138	0xbd62fb04	-0.05541517
139	0xbbf4c9aa	-0.0074703293
140	0xbd25aae0	-0.040446162
141	0xbd5f0b94	-0.0544544
142	0x3c463989	0.012098678
143	0x3c687b9d	0.014189628
144	0xbcbc50fe	-0.022987839
145	0x3cbca4b4	0.023027755
146	0x3ccd7073	0.025078034
147	0xbc900f57	-0.01758544
148	0x3ba0d008	0.0049076118
149	0xbccd5f65	-0.025069902
150	0x3d34843d	0.044071425
151	0xbcad7941	-0.021175982
152	0x3c1182f9	0.008881324
153	0x3d0cf33a	0.034411646
154	0x3c8f3fdb	0.017486503
155	0x3d3f9efa	0.04678247
156	0xbc886dc2	-0.0166539
157	0xbce1bbf8	-0.02755545
158	0xbb5457ef	-0.0032401045
159	0x3cdee0a5	0.027206728
160	0xba834f5b	-0.0010018157
161	0x3d67f39c	0.05662881
162	0x3cb74f32	0.02237663
163	0x3d01efdf	0.0317229
164	0xbc9dae71	-0.01924822
165	0x3867911a	5.5209828e-05
166	0x3d362d87	0.044477012
167	0x3c2800d1	0.010254101
168	0xbd19fb98	-0.037593454
169	0x3d68a5b1	0.05679864
170	0xbd4ffaa6	-0.050776146
171	0x3d5e7086	0.05430653
172	0xbcd4b9c2	-0.025967482
173	0xbd3aa59b	-0.04556809
174	0xbd20bf1b	-0.039244752
175	0xbcecc9a6	-0.028904747
176	0x3c0ef93a	0.008726412
177	0xbd7a3a3f	-0.061090704
178	0x3d74eb39	0.05979464
179	0x3c1d883b	0.009614999
180	0xbccf9a20	-0.025342047
181	0xbd6c3274	-0.057665303
182	0xbce67bcf	-0.028135208
183	0x3d094ff5	0.03352352
184	0xbd57f747	-0.052726056
185	0x3cfea26d	0.03108331
186	0xbcb5747d	-0.022150273
187	0x3d31fc79	0.043453667
188	0x3ce3d999	0.02781372
189	0xbd07ce7c	-0.033155903
190	0xbc9c7150	-0.019097
191	0x3cfa6f17	0.03057055
192	0x3d74f850	0.05980712
193	0xbcea3c0e	-0.02859309
194	0xbceddef7	-0.029036982
195	0xbd793f1a	-0.060851194
196	0x3afc9418	0.001927021
197	0xbc33d697	-0.010976455
198	0xbc835dec	-0.016035996
199	0xbd37e0f3	-0.044892263
200	0xbc8f1637	-0.017466648
201	0xbc84724e	-0.016167786
202	0xbd47aa18	-0.0487462
203	0x3a9b934b	0.0011869458
204	0x3b9562a6	0.004558879
205	0xbc1b8170	-0.0094913095
206	0xbd377b2c	-0.0447952
207	0xbd08e731	-0.033423606
208	0xbcb986cc	-0.022647284
209	0x3ca0136a	0.019540507
210	0x3ce13925	0.027493069
211	0x3d11ae2e	0.0355665
212	0x3cf0e7d5	0.029407421
213	0xbd740b54	-0.059581116
214	0xbcc4b6e8	-0.024012998
215	0xbd632955	-0.05545934
216	0x3ce3d605	0.027812013
217	0xba5bdb0d	-0.0008386828
218	0x3cfb962b	0.030711254
219	0xbb45351d	-0.0030091472
220	0x3d2fbcbe	0.042904608
221	0x3cea3b8b	0.028592845
222	0x3d66377b	0.056205254
223	0x3d4b4aec	0.049631998
224	0xbc5d7703	-0.013517144
225	0x3ae20543	0.0017244
226	0xbc3cd268	-0.011524774
227	0xbd267c5a	-0.040645935
228	0xbcb427c9	-0.021991627
229	0x3d335bef	0.043788847
230	0x3c48d7e6	0.012258505
231	0x3c8d4b85	0.017247925
232	0x3cee9e5d	0.029128248
233	0x3d435715	0.04769047
234	0xbce137dc	-0.027492456
235	0x3d117f5f	0.03552186
236	0x3d2be678	0.04196784
237	0xbd49018c	-0.04907374
238	0xbcef0c9e	-0.029180821
239	0x3d11057e	0.03540563
240	0xbcdd6dcc	-0.027029894
241	0x3b913024	0.0044307876
242	0x3cc1c351	0.023652704
243	0x3d42760d	0.047475863
244	0x3d19653c	0.03745006
245	0x3d77db06	0.06051161
246	0xbd6c7358	-0.057727188
247	0xbd68b44f	-0.05681258
248	0x3c930178	0.017945036
249	0xbd2f1ef7	-0.04275414
250	0xbd3ae5ed	-0.04562943
251	0x3d2f2a04	0.04276468
252	0x3cffc45a	0.031221557
253	0x3cc1c14f	0.023651747
254	0x3d215583	0.03938819
255	0xbcb04c83	-0.021520859

conv2.bias f4 [20]
0	0xbcfc84c6	-0.03082503
1	0x3c496a6d	0.01229344
2	0xbd6d4463	-0.057926547
3	0xbc778587	-0.015107519
4	0x3d72aeda	0.059248783
5	0x3ccd1d8f	0.025038509
6	0x3c835cda	0.016035486
7	0x3cdebbbf	0.027189134
8	0xbd719b18	-0.0589858
9	0x3bedb454	0.007254163
10	0x3c047c3c	0.00808626
11	0xbc199b66	-0.009375429
12	0x3c39b82e	0.011335416
13	0xbcf36e91	-0.029715808
14	0xbc261827	-0.010137594
15	0x3d21ec38	0.039531916
16	0x3d7dd447	0.06197002
17	0xbcdcc956	-0.026951473
18	0x3d0570ef	0.032578405
19	0x3c8b791f	0.017025528

fc1.weight f4 [50, 320]
0	0xbd47f3ba	-0.04881642
1	0x3d1cfd88	0.038327724
2	0xbccf2fab	-0.025291285
3	0xbd17bb6b	-0.03704397
4	0xbb915253	-0.0044348626
5	0xbc76fa54	-0.015074331
6	0xbc3859e9	-0.011251905
7	0x3d5af669	0.05345765
8	0xbc2444e5	-0.010026191
9	0x3d150f26	0.0363914
10	0xbd594a23	-0.053049218
11	0xbacfc592	-0.0015851727
12	0x3c794fe3	0.0152168
13	0xbc00135d	-0.007817117
14	0xbd1f76dd	-0.038931716
15	0x3ce25587	0.027628673
16	0x3c720145	0.0147708105
17	0x3d60ce30	0.054884136
18	0x3c90b337	0.017663581
19	0xbc7be0c2	-0.015373411
20	0x3d160a7f	0.036631104
21	0x3d03cbba	0.03217671
22	0xbd064491	-0.032780234
23	0x3ccba36e	0.024858203
24	0xbce915da	-0.028452802
25	0x3d421874	0.0473866
26	0xbd54b0cc	-0.05192642
27	0xbaafdea1	-0.0013417789
28	0x3d3bd5f2	0.04585833
29	0xbd0f632d	-0.03500669
30	0x3af25133	0.0018487334
31	0x3d419877	0.047264542
32	0x3cb0c0ab	0.021576246
33	0x3c801d09	0.015638845
34	0xbd574b1f	-0.052561875
35	0x3d2123c1	0.03934074
36	0xb9acaf10	-0.00032936828
37	0xba3dd1c8	-0.00072410377
38	0xbca1828b	-0.019715568
39	0xbd04a45c	-0.032383308
40	0xbd54171d	-0.051779855
41	0xbca24a88	-0.01981093
42	0x3d11cda9	0.035596523
43	0xbbd9a9f5	-0.006642575
44	0x3c60d6e0	0.013723105
45	0xbd08a998	-0.033364862
46	0x3c33846c	0.010956865
47	0xbcffd143	-0.031227713
48	0x3cc235c1	0.023707272
49	0xbd1e61f5	-0.038667638
50	0xbb5ff2e8	-0.0034171883
51	0xbd1b8a5b	-0.037973743
52	0x3cf1d186	0.029518854
53	0x3cadb317	0.02120356
54	0xbd1d1df6	-0.03835865
55	0xbd24caa9	-0.040232334
56	0x3d58557c	0.0528159
57	0x3d2af262	0.04173506
58	0x3c3cb424	0.011517558
59	0x3cf34e8d	0.029700542
60	0x3c60b1e1	0.013714285
61	0xbd3955ae	-0.045247726
62	0xbbae398a	-0.005316918
63	0xbd247ede	-0.040160052
64	0xbd40753b	-0.0469868
65	0xbc80d723	-0.015727585
66	0x3ca99745	0.020702014
67	0xba43a568	-0.0007463307
68	0x3d2e9c55	0.04262956
69	0x3c6bef3b	0.014400299
70	0x3b844451	0.0040364643
71	0xb7251843	-9.840415e-06
72	0xbd5fa89c	-0.054604158
73	0xbd344426	-0.044010304
74	0x3cac79f0	0.021054238
75	0x3cb48974	0.022038199
76	0x3d5a0bfb	0.05323408
77	0xbc0babef	-0.008524879
78	0x3d4d9ce8	0.050198466
79	0xbc3c1368	-0.011479236
80	0x3d567369	0.052356157
81	0x3b8f1b26	0.00436725
82	0x3d1c2c91	0.03812844
83	0x3c831ebb	0.016005864
84	0x3c35cfcc	0.011096906
85	0x3cc11d18	0.023573443
86	0x3ce27fea	0.027648885
87	0x3c462bf6	0.012095442
88	0x3c620d01	0.013797046
89	0x3cc01bf3	0.023450827
90	0x3d0a89db	0.033822875
91	0x3cd93d3e	0.02651846
92	0xbccd0786	-0.025028002
93	0xbd018e7f	-0.031630035
94	0xbce3733d	-0.02776491
95	0x3bb734d7	0.005591016
96	0x3c0eb78b	0.008710752
97	0x3cefb7e5	0.029262492
98	0xbcdd1f88	-0.026992574
99	0xbd198d84	-0.037488475
100	0x3d53f7dc	0.05175005
101	0xbd2ab470	-0.041675985
102	0xbc37ed34	-0.011225987
103	0x3c25006a	0.0100708995
104	0x3d5fbc82	0.054623134
105	0x3ccedad1	0.025250824
106	0xbd0ce6e4	-0.034399882
107	0x3d192f36	0.03739854
108	0xbd52034d	-0.05127268
109	0xbbd90ba4	-0.006623702
110	0x3d51807a	0.051147915
111	0xbd07e733	-0.033179473
112	0xbd4add49	-0.04952744
113	0x3a4ea551	0.00078829104
114	0x3cf7df94	0.030257978
115	0xbcbb66bf	-0.022876142
116	0xbd5777f7	-0.05260464
117	0x3cbb88df	0.022892414
118	0x3d03d15f	0.032182094
119	0x3d5531fd	0.052049626
120	0xbc4e7a37	-0.0126023805
121	0x3c8fc7ea	0.017551381
122	0x3c626537	0.013818077
123	0xbd38ce0b	-0.045118373
124	0xbd2d1509	-0.04225639
125	0x3cfe0b0e	0.03101113
126	0x3ce61eb7	0.028090818
127	0xbd648bdc	-0.055797443
128	0xbd07bd16	-0.03313931
129	0x3cc2f502	0.02379847
130	0xbcb13b15	-0.021634618
131	0x3cdc97ce	0.026927855
132	0xbd1779af	-0.03698128
133	0xbd012a25	-0.031534333
134	0x3d4ba54a	0.04971818
135	0xbcedb61f	-0.029017506
136	0x3b9dd548	0.004816685
137	0x3ad9c333	0.001661396
138	0xbd41a428	-0.047275692
139	0xbccf86ad	-0.025332773
140	0xbceb5d5e	-0.028731044
141	0x3d505b04	0.05086805
142	0x3c0c4a9c	0.00856271
143	0x3bb9cbe5	0.005670058
144	0xbc6a3476	-0.014294734
145	0x3caaf770	0.02086994
146	0x3cf239ce	0.029568579
147	0xbd3574db	-0.044300895
148	0x3bf6ece2	0.007535563
149	0x3d4878ae	0.048943214
150	0x3d6315a0	0.055440545
151	0x3c238e2f	0.00998263
152	0x3c797841	0.015226425
153	0xbd22bc57	-0.039730396
154	0x3d461d4d	0.048367787
155	0x3d04b437	0.03239843
156	0x3be0f125	0.006864684
157	0xbd2f3f12	-0.042784758
158	0x3d0e6e51	0.034773175
159	0x3c9e47cc	0.019321345
160	0x3ce2dcf2	0.027693246
161	0x3c43c2e2	0.011948319
162	0xbd58cc31	-0.052929107
163	0x3cd3162d	0.02576741
164	0xbca2cbd9	-0.019872593
165	0xbc95af04	-0.01827193
166	0x3d0f2b9a	0.03495369
167	0x3b647951	0.003486235
168	0xbc692b23	-0.014231476
169	0x3bcca119	0.0062447903
170	0x3d19b83d	0.03752922
171	0xbc927b4c	-0.017881058
172	0x3ca4ee4a	0.020133156
173	0xbd4bc3f3	-0.04974742
174	0xbb8c4635	-0.0042808303
175	0xbcd97593	-0.026545322
176	0x3d652960	0.05594766
177	0xbd2c8978	-0.042123288
178	0x3cefc41a	0.029268313
179	0x3d5e8bf2	0.05433268
180	0x3d4a138a	0.04933504
181	0x3b9c8ceb	0.004777541
182	0x3d39289d	0.045204747
183	0x3d5e746a	0.05431024
184	0x3d590903	0.05298711
185	0xbc8d1809	-0.017223375
186	0x3c704790	0.014665499
187	0xbcfd96da	-0.03095572
188	0xbd415a42	-0.047205217
189	0x3d349ccd	0.04409485
190	0x3d44e0ff	0.048066135
191	0xbc63d6f7	-0.013906232
192	0xbc870643	-0.016482478
193	0x3c761d8e	0.015021695
194	0xbcafb26e	-0.021447387
195	0x3d175409	0.036945377
196	0xbd596a62	-0.05307997
197	0xbb68e825	-0.003553876
198	0x3cc7a877	0.024372322
199	0xbd4cb605	-0.049978275
200	0xbcf7fef1	-0.030272933
201	0xbd0d61e4	-0.034517184
202	0xbc6c8f91	-0.014438526
203	0x3d47c096	0.04876765
204	0xbc8d6787	-0.01726128
205	0x3ce09a3d	0.027417297
206	0xbd3ac981	-0.045602325
207	0xbd17972f	-0.037009414
208	0xbd15e9d0	-0.036599934
209	0x3c14a1c4	0.009071771
210	0x3bcb8e6f	0.0062120478
211	0xbc206bd6	-0.009791335
212	0xbd0f3ec1	-0.034971956
213	0x3d314ee0	0.04328811
214	0xbd250137	-0.04028436
215	0xbd46247e	-0.048374645
216	0xbcbc3ce1	-0.022978248
217	0xbc9e7c58	-0.019346401
218	0x3d260a48	0.04053715
219	0x3d171cc7	0.03689268
220	0x3d2cb645	0.042166013
221	0xbc2c6e1d	-0.0105243
222	0xbc1db926	-0.009626662
223	0x3d0e9fb2	0.034820266
224	0x3c05a158	0.008156143
225	0x3c8a7628	0.016902044
226	0xbbb38b50	-0.005479254
227	0x3d02c889	0.031929526
228	0x3d2ec899	0.042671774
229	0xbd380e72	-0.04493565
230	0xbbe96c33	-0.007123494
231	0xbd254f99	-0.040359113
232	0x3d3f4e05	0.046705265
233	0xbd626891	-0.055275504
234	0xbd41950c	-0.047261283
235	0x3c5451c7	0.01295895
236	0x3cfce49c	0.030870728
237	0xbd4b9742	-0.049704798
238	0xbcab41b8	-0.02090536
239	0xbd065d12	-0.032803603
240	0x3d4ef291	0.050524298
241	0xbd407ba0	-0.046992898
242	0xbd3721aa	-0.04470984
243	0x3bc251e7	0.0059301737
244	0xbd491abe	-0.04909777
245	0x3d600066	0.05468788
246	0x3c0ce21b	0.00859883
247	0x3cae9dc1	0.021315457
248	0xbc86cf93	-0.016456401
249	0x3cd1bfa6	0.02560408
250	0xbca66bee	-0.020315137
251	0xbcb5bd65	-0.022185037
252	0xbd3f9ced	-0.046780515
253	0x3d413f42	0.047179468
254	0x3cfdf13c	0.030998819
255	0x3bc3c59e	0.0059744855

fc1.bias f4 [50]
0	0xbd2ded62	-0.042462714
1	0xbcd77fa0	-0.026305974
2	0xbd10d87e	-0.035362713
3	0xbd2fc0a2	-0.04290832
4	0x3cb168f3	0.021656489
5	0x3c099721	0.008397848
6	0xbcff3105	-0.031151304
7	0xbcd24474	-0.025667407
8	0x3a72d993	0.00092639885
9	0x3c42b525	0.0118840085
10	0x3d137a8a	0.036005534
11	0x3d0aaab9	0.03385422
12	0xbd1e646c	-0.03866999
13	0xbd62014d	-0.05517702
14	0x3c0af24c	0.00848062
15	0x3d46126a	0.048357405
16	0xbd32f065	-0.04368629
17	0x3c6df5f2	0.01452397
18	0xbcb6c71f	-0.022311745
19	0xbcd8ae67	-0.026450349
20	0x3cf445ba	0.029818404
21	0x3cc04b66	0.023473453
22	0xbd4dbac6	-0.05022695
23	0xbbfb4eea	-0.0076693194
24	0xbd1e5f93	-0.038665365
25	0x3d1302cc	0.03589134
26	0xbcdce0a5	-0.026962588
27	0xbc8ed533	-0.017435646
28	0x3b86be87	0.004112068
29	0x3cb637f9	0.022243487
30	0x3d30b502	0.043141373
31	0x3d34766f	0.04405826
32	0xbb314b4f	-0.0027052944
33	0xbc9a87d6	-0.0188636
34	0x3d1fa4ee	0.03897565
35	0xbd04c5d7	-0.032415237
36	0xbb3438dd	-0.0027499713
37	0x3cebcc30	0.028783888
38	0xbc9a5b74	-0.018842436
39	0x3bebf76a	0.007201125
40	0xbb6cd69a	-0.0036138655
41	0xbb8244f0	-0.003975503
42	0xbc7f382c	-0.015577357
43	0x3bf4612e	0.007457874
44	0xbd3adb07	-0.045619037
45	0x3d21f7cd	0.039542962
46	0x3c7decf4	0.015498389
47	0xbb82d329	-0.0039924574
48	0xbbf681e1	-0.007522807
49	0xbd01e624	-0.03171362

fc2.weight f4 [10, 50]
0	0xbdcd06fb	-0.10011097
1	0x3da271ea	0.07931884
2	0x3d0f810c	0.035035178
3	0xbb8fdf0a	-0.004390602
4	0x3d36afa4	0.044601098
5	0x3df48f2a	0.11941369
6	0xbceebe24	-0.0291434
7	0x3c8bedfb	0.017081251
8	0xbdfb7afd	-0.122793175
9	0xbd0bf74e	-0.034171395
10	0xbd5b8647	-0.053594854
11	0x3d4eb355	0.050463993
12	0x3d2bcde4	0.0419444
13	0xbcb712e2	-0.022347871
14	0x3d4be177	0.049775567
15	0xbdd365c7	-0.10322147
16	0x3daa4887	0.08314615
17	0x3c50e1b6	0.012749126
18	0xbd9c65f5	-0.07636634
19	0xbcb6d087	-0.02231623
20	0x3d636a4c	0.055521294
21	0x3d164843	0.036690008
22	0xbe033b5a	-0.1281561
23	0x3c871de1	0.01649374
24	0x3cdff6c0	0.02733934
25	0xbd6b5fda	-0.057464458
26	0xbd0c8f5f	-0.034316417
27	0x3e05c9d9	0.1306528
28	0xbd2d1515	-0.042256434
29	0xbdd7a2e5	-0.105291165
30	0xbe032024	-0.1280523
31	0x3dd77b9e	0.10521625
32	0x3e05ab22	0.13053563
33	0xbdcf97e5	-0.101363935
34	0x3cb80109	0.022461431
35	0x3e0149d6	0.12625822
36	0xbda1dd28	-0.0790351
37	0xbd964f86	-0.07339387
38	0x3df26e50	0.11837447
39	0xbd7031d6	-0.058641277
40	0x3b9c13f0	0.004763119
41	0x3dece4cb	0.11567076
42	0x3c3bc62b	0.011460821
43	0x3da4a702	0.08039667
44	0xbdf5f75f	-0.12010073
45	0xbd9b3eb9	-0.07580323
46	0xbda853ef	-0.08219134
47	0xbd9fb60e	-0.07798396
48	0x3c341a30	0.010992572
49	0xbd2c5e1b	-0.042081933
50	0xbc4f8c52	-0.012667732
51	0xbd56fd13	-0.052487444
52	0x3cc1bc67	0.023649408
53	0x3c124c47	0.008929319
54	0xbd487681	-0.04894114
55	0xbdd3379c	-0.10313341
56	0xbdb28600	-0.08716965
57	0x3d138247	0.036012914
58	0x3dc0361c	0.093853205
59	0xbbb74f80	-0.005594194
60	0xbbfdda81	-0.007746995
61	0x3da3d71e	0.08000015
62	0xbd88d3d5	-0.06681029
63	0x3d9b42a9	0.07581074
64	0xbcec4f31	-0.028846355
65	0x3dc506f2	0.09620465
66	0x3ddeed8a	0.10885151
67	0xbc805e49	-0.015669959
68	0x3da60a95	0.08107487
69	0x3de1ab5a	0.11019011
70	0xbd9e28d4	-0.07722631
71	0xbd9af0ac	-0.07565436
72	0x3dc5c8b6	0.09657423
73	0x3df95907	0.12175184
74	0xbcec8494	-0.028871812
75	0x3d0f8ee5	0.035048384
76	0xbbdc99b7	-0.0067321914
77	0x3daa9343	0.08328869
78	0x3de996da	0.11405726
79	0x3b84919a	0.0040456774
80	0x3d89b7a2	0.06724478
81	0x3d969a3e	0.07353638
82	0x3d893552	0.06699623
83	0x3dde0b27	0.10841971
84	0x3d6378ae	0.05553501
85	0xbda2c72b	-0.079481445
86	0x3d69d996	0.05709227
87	0x3d94824c	0.07251415
88	0x3dd52209	0.10406882
89	0xbe07e62a	-0.13271394
90	0xbd2f3947	-0.042779233
91	0xbce8a4c5	-0.02839888
92	0xbc7f602d	-0.015586895
93	0x3c92ded7	0.017928524
94	0x3d61a479	0.055088494
95	0xbdda30e4	-0.106538564
96	0x3d6e7896	0.05822047
97	0xbd64eb93	-0.055888724
98	0xbdaa862c	-0.083263725
99	0xbde40684	-0.11134055
100	0xbe0ab198	-0.13544309
101	0x3e07e1dc	0.13269752
102	0x3dc27641	0.094952114
103	0x3da01f4e	0.07818471
104	0xbd51ea63	-0.05124892
105	0xbd08dedf	-0.03341567
106	0x3ce93435	0.028467277
107	0xbb2b6c67	-0.0026157142
108	0xbdf55a65	-0.11980132
109	0x3b9372a9	0.0044997525
110	0xbda5585f	-0.08073496
111	0x3dee5e32	0.1163906
112	0xbe0b60f9	-0.13611211
113	0xbc554196	-0.013016125
114	0x3c5d4ffd	0.01350784
115	0x3d5ddcdc	0.054165706
116	0xbd3b3066	-0.045700453
117	0x3d90fab5	0.070790686
118	0x3dbdb7a4	0.09263542
119	0x3df868a4	0.121293336
120	0xbba21c11	-0.0049471934
121	0x3d9d7483	0.076882385
122	0xbdc4b009	-0.096038885
123	0x3dfab268	0.122410595
124	0xbdba31a0	-0.090914965
125	0x3d870141	0.06592036
126	0xbddd315f	-0.108004324
127	0x3c944fe1	0.018104495
128	0xbda65268	-0.081211865
129	0x3c73a477	0.014870754
130	0x3d0618bb	0.03273843
131	0xbd5685a1	-0.052373532
132	0x3d84c601	0.06483079
133	0xbdce8c65	-0.10085372
134	0x3da9fb22	0.08299853
135	0xbd1c19e4	-0.03811063
136	0x3dbb84d5	0.09156195
137	0x3c82a785	0.01594902
138	0xba3d63f9	-0.0007224675
139	0x3dd35bf8	0.10320276
140	0x3d724daa	0.059156097
141	0xbd4a3bd2	-0.049373455
142	0xbdaada5c	-0.0834243
143	0x3d1a3c18	0.037654966
144	0xbdd1322d	-0.102146484
145	0xbd6a595b	-0.057214122
146	0xbccff096	-0.025383275
147	0x3d9037f4	0.07041922
148	0x3c9e015d	0.01928776
149	0x3d10b103	0.03532506
150	0xbc957c7a	-0.018247832
151	0x3d63db3f	0.05562901
152	0xbd5d3ec7	-0.054014947
153	0xbd6fb04b	-0.058517735
154	0xbdd87a44	-0.10570195
155	0x3d63278b	0.055457633
156	0x3bb4220a	0.005497222
157	0xbd0f0129	-0.034913216
158	0x3c16493c	0.009172734
159	0x3dcd186a	0.10014422
160	0xbceb26b7	-0.028704984
161	0xbd556549	-0.052098546
162	0x3dcc2a03	0.099689506
163	0xbcaa01af	-0.020752756
164	0xbdc453a0	-0.09586263
165	0x3dfe60c9	0.12420804
166	0xbc204137	-0.009781173
167	0xbbcf42b0	-0.0063250884
168	0x3db72f96	0.08944623
169	0x3ced810b	0.028992197
170	0x3e08c4d5	0.13356335
171	0xbdc20293	-0.09473147
172	0xbd92f51d	-0.07175658
173	0xbd25bef0	-0.040465295
174	0x3c5d5547	0.013509101
175	0xbca23eed	-0.019805396
176	0x3dfeb556	0.12436931
177	0xbd2138d3	-0.039360832
178	0x3cd9d0db	0.026588848
179	0x3bfde683	0.0077484264
180	0x3c54173a	0.012944991
181	0xbdcfaa4c	-0.101399034
182	0x3da4355b	0.08017989
183	0x3d87ba62	0.066273466
184	0xbde92b0d	-0.113851644
185	0x3d5eb0df	0.054367896
186	0xbdcd62d1	-0.10028613
187	0x3da4bafb	0.08043476
188	0x3cf2a9a5	0.029621908
189	0xbdc1e2e0	-0.09467101
190	0xbdedfb60	-0.116202116
191	0xbdf038d8	-0.11729592
192	0xbda89677	-0.08231824
193	0x3d3e0fd5	0.046401817
194	0x3d1ac0c5	0.037781496
195	0x3d65778a	0.056022204
196	0xbe0e311e	-0.13885924
197	0x3dacf07f	0.084443085
198	0xbde9a7f4	-0.11408988
199	0x3e01473a	0.12624827
200	0x3d23823e	0.03991913
201	0xbdad9a41	-0.08476687
202	0x3dbb26b9	0.09138245
203	0x3c3fc3c6	0.011704391
204	0xbdc98c06	-0.098411605
205	0x3c6e5737	0.014547161
206	0xbce5f473	-0.028070664
207	0x3d226e1f	0.0396558
208	0x3dbd4a39	0.092426725
209	0xbdb4b2be	-0.08823155
210	0x3ac1056e	0.001472635
211	0xbd98e4b1	-0.074654944
212	0x3ddde2e3	0.10834291
213	0xbe011f30	-0.12609553
214	0x3df38f3c	0.11892554
215	0x3d3089ad	0.043100048
216	0xbde2a192	-0.11065973
217	0x3da56911	0.080766805
218	0xbdca59ff	-0.09880447
219	0x3deed5ae	0.1166185
220	0x3d6bdfc1	0.057586435
221	0xbcdb240d	-0.026750589
222	0xbe04d8e7	-0.12973367
223	0xbb4ba3a6	-0.0031072884
224	0xbbe20d10	-0.00689853
225	0x3e0fc756	0.14040884
226	0xbe050761	-0.12991096
227	0x3e097da3	0.13426833
228	0xbc3be1f0	-0.011467442
229	0x3d8aec4c	0.06783351
230	0xbc91bf2c	-0.017791353
231	0xbe114886	-0.14187822
232	0xbde78394	-0.113043934
233	0x3cc521a8	0.0240639
234	0x3c8fcf1a	0.017554808
235	0xbdc26fe3	-0.09493997
236	0x3dcbce23	0.09951427
237	0xbd1de0b4	-0.03854437
238	0xbe0d1435	-0.1377724
239	0xbdf2fc35	-0.11864511
240	0xbc198e5d	-0.009372321
241	0x3d8adf09	0.06780822
242	0xbd72f08e	-0.059311442
243	0xbd1893cd	-0.03725033
244	0xbc17c6d9	-0.009263718
245	0x3d2e742d	0.042591263
246	0x3c24578b	0.0100306375
247	0x3d1175f1	0.03551287
248	0xbddcbbc0	-0.10777998
249	0x3d1e82ab	0.038698833
250	0xbdd28bff	-0.102806084
251	0x3dd1af94	0.10238567
252	0xbd9f0c92	-0.077660695
253	0xbd90bf2b	-0.070677124
254	0x3c8b07b6	0.01697145
255	0x3e047d87	0.1293851

fc2.bias f4 [10]
0	0xbdc81dc2	-0.09771301
1	0xbdad1cc5	-0.08452753
2	0x3cd872a7	0.026421858
3	0xbd46e586	-0.048558734
4	0x3cf43521	0.02981049
5	0x3d33fba2	0.043941148
6	0x3e0dc8c0	0.13846111
7	0xbc062b9e	-0.00818911
8	0xbe0c8160	-0.13721228
9	0xbd02cdb1	-0.031934444
