results/model.pth (torch, 90673 bytes, 8 tensors)

conv1.weight f4 [10, 1, 5, 5]
000000 a8 bf 80 be f3 20 cc be 0d 00 b7 be 83 38 58 be
       -0.25146222 -0.39868888 -0.35742226 -0.21115308
000010 8f 9b 82 be e9 08 75 be 1a f1 66 be 55 e4 9a be
       -0.25509307 -0.2392918 -0.2255291 -0.3025233
000020 1f 66 8d be 58 59 59 be 7f 2a 18 3e 26 de d8 3d
       -0.27616975 -0.21225488 0.14859961 0.105892465
000030 b7 6b 44 3e e1 56 3f 3e 1c dc 9d 3e d3 67 7e 3e
       0.19181715 0.18685485 0.30831993 0.24844293
000040 df c4 22 3e be f6 cd 3e b6 01 66 3e 30 ba 38 3e
       0.15895413 0.40227312 0.2246159 0.18039775
000050 57 7b a6 3e dc 22 92 3e 59 53 80 3d 02 47 a4 3d
       0.32515976 0.2854222 0.06265897 0.08021356
000060 0c c4 10 3e 82 f3 71 be 3d cd 8f bd ba 4e 15 be
       0.14137286 -0.23628047 -0.07021568 -0.14580813
000070 a5 fa 0c 3e ea a5 f8 3d 33 08 85 be a9 b0 05 be
       0.13767488 0.121410206 -0.25982818 -0.13055672
000080 eb d1 d8 3c e6 88 6b 3e 87 79 02 3d 5b 9e 4d be
       0.026467284 0.23001441 0.03185418 -0.20079939
000090 30 5c 44 bd 10 65 86 3e 0f 94 53 3e 54 25 18 3e
       -0.04793948 0.2624898 0.20661949 0.1485799
0000a0 c6 7a 23 be 28 d0 1e bd e7 a1 bd 3d 18 b1 8d 3e
       -0.15964803 -0.038772732 0.09259396 0.27674174
0000b0 00 1b 84 bd fa 6f c5 3c 06 5f 82 3e 3b 0d 97 3e
       -0.06450462 0.024101246 0.25463122 0.29502282
0000c0 48 0b 60 3d 58 f3 3f bc 93 c1 55 be 63 73 fc bd
       0.05469826 -0.0117157325 -0.20874624 -0.12326696
0000d0 cb b2 c6 bd 46 6b ac 3d 31 16 35 3c 04 aa 92 3d
       -0.09702071 0.08418898 0.011052654 0.07161334
0000e0 a4 ce 67 bd c0 91 16 3d db ac c5 3c 8f 7e 70 bd
       -0.056593552 0.03676009 0.024130275 -0.058714446
0000f0 39 64 92 3d 3b c7 f7 3d fa a1 02 3e 32 19 29 3e
       0.07148022 0.12098547 0.12757102 0.16513517
000100 e6 61 61 bd 05 e9 53 bd 7e eb 54 3e 2d 7a 72 3e
       -0.055025004 -0.051735897 0.20792958 0.23679419
000110 0f 62 f4 bc df 30 1f be 07 e2 51 3e c6 d8 c5 bd
       -0.029831914 -0.15545987 0.20496379 -0.09660487
000120 b8 50 de 3c e1 d6 74 be 88 be 5e be c3 39 7f be
       0.0271381 -0.23910095 -0.2175237 -0.24924378
000130 f7 35 6e be 36 67 5a be 90 e0 0f be 5a 31 63 3d
       -0.23262773 -0.21328434 -0.14050508 0.055466987
000140 93 55 b7 bc 2b 60 2b bd 1f c1 47 be 53 10 09 be
       -0.022379672 -0.04183976 -0.19507264 -0.13385133
000150 af f6 9c 3e e0 70 71 be d7 86 83 be d6 91 e9 bd
       0.30656955 -0.23578215 -0.25688812 -0.11404769
000160 f1 8f 67 3e 6d 4b 04 3e 5e cd 82 be 2c 1d 41 be
       0.22613503 0.12919398 -0.25547308 -0.18858784
000170 ce 59 87 bd c0 e4 65 3e 9e 96 b3 3e 42 f4 5d bd
       -0.06608926 0.22450542 0.3507585 -0.05418802
000180 40 36 9a be 70 00 1c be dd f0 4b 3e 35 e3 84 3e
       -0.30119514 -0.15234542 0.19916101 0.25954595
000190 4b 64 08 3d 9b 53 be bd 12 0e ab bd 3a e6 e5 bd
       0.03329877 -0.0929329 -0.08352293 -0.11225553
0001a0 3d a7 90 3e 22 c9 44 be 52 fb 0d be c9 40 40 bb
       0.28252593 -0.19217351 -0.13865402 -0.002933549
0001b0 51 4e 6c bc 7a cf 9c 3d bd 43 b2 bc 0a 09 93 3b
       -0.014422969 0.076567605 -0.021760816 0.0044871615
0001c0 3e 37 8f bd 7c 87 27 be a6 15 3d be 3b 4f 06 be
       -0.069929585 -0.16360277 -0.1846529 -0.13116162
0001d0 80 25 21 be 4f 8d c6 3d 58 6d 15 be b2 c9 ec bd
       -0.15736961 0.09694921 -0.14592493 -0.11561908
0001e0 aa 51 aa bd f7 c0 a6 bd a4 91 47 be 3d 0c 3e be
       -0.083163574 -0.08142274 -0.19489151 -0.18559356
0001f0 3f c0 1c be 38 80 72 bd d4 36 12 3e f4 a6 91 3e
       -0.15307711 -0.05920431 0.14278728 0.28447688
000200 e2 ae fd 3d 0f 1e 95 3d 1f 7f f0 bd 5e 45 69 bc
       0.12386872 0.07281124 -0.117429964 -0.01423773
000210 e0 c3 70 3e 7e da 28 3e 76 ee 61 be 95 37 3e 3e
       0.2351222 0.16489598 -0.22063622 0.1857589
000220 73 4c af 3e 96 96 90 3e 01 dd 87 3b 12 da 70 be
       0.34238014 0.28239888 0.0041462188 -0.23520687
000230 b5 cc 3a 3e 7d 30 6b 3d ec 97 7a 3e 98 b3 08 3e
       0.18242152 0.05741929 0.24472016 0.1334976
000240 5a a1 a8 be c9 f0 53 3c cf 7d 3b 3e a1 f5 a7 3e
       -0.329356 0.012935826 0.18309711 0.32804587
000250 3d 25 de 3d 6c fd 61 bd bb a0 98 3e 18 fa 77 3e
       0.108469464 -0.055173323 0.29810128 0.24216497
000260 d0 15 b1 bc 5a c5 3c bd 4a 6c 10 bd 2f f7 1c 3e
       -0.021616846 -0.046086647 -0.035259522 0.15328668
000270 96 f9 9b 3e 68 24 69 3e e2 01 3a 3d 03 d0 33 3d
       0.30463856 0.22767794 0.04541195 0.043899547
000280 1b 0f 3c be b5 67 21 be 9a 9b f8 3d 88 e9 2a 3e
       -0.18365137 -0.15762217 0.12139054 0.16690648
000290 6b 02 16 3e e5 4a 3d be ab 8d b4 3d a0 fb e4 3d
       0.1464936 -0.18485601 0.088160835 0.11180806
0002a0 24 b7 10 bd 48 38 14 be 71 46 ae be a3 cd 84 bd
       -0.035330907 -0.14474595 -0.34038118 -0.064845346
0002b0 61 09 84 be 0e 07 d7 bd fa 18 0d 3e 32 35 07 3e
       -0.25788406 -0.104993924 0.13779059 0.13203886
0002c0 46 53 ce 3e e1 a4 49 3e 2f 1d 38 bb 16 a0 c4 3d
       0.40297908 0.19691803 -0.0028093567 0.096008465
0002d0 22 0e 59 3e 5c 4b 67 3e 3f 90 e9 3e d0 63 91 3e
       0.21196797 0.22587341 0.45617864 0.28396463
0002e0 f2 78 ec 3d 78 7d 84 bb 31 5b 22 be cb 1c 10 3d
       0.11546506 -0.0040432774 -0.158551 0.03518371
0002f0 0e 77 16 3e fe 80 26 3e 7a e8 d7 bd d0 69 4c be
       0.14693853 0.16260144 -0.10542388 -0.1996224
000300 00 09 72 be ad 45 59 bc 0c 20 b2 bd 41 47 d7 be
       -0.23636246 -0.013261241 -0.08697519 -0.4204655
000310 92 55 d1 bd 6c 62 55 be 40 2a d2 bc 21 40 fe 3d
       -0.10221399 -0.20838326 -0.025654912 0.12414575
000320 f0 2a 8d 3d b1 97 9a 3e 85 af ab 3e fc 60 ba 3c
       0.06892955 0.30193856 0.33532348 0.022751324
000330 90 95 1a 3e f3 49 35 3d 31 1d 4a 3d fa 8c a4 3c
       0.15096116 0.044259977 0.049344245 0.020086754
000340 ed 3c 0d 3e f5 22 35 be d6 97 ec bd 5b 51 d5 bd
       0.13792773 -0.17689116 -0.11552398 -0.10415908
000350 8f 07 82 bc 7d b4 54 be d8 4e 41 bd 87 fa 4b be
       -0.015872745 -0.20771976 -0.047194332 -0.19919787
000360 60 08 a7 3c e5 ec 61 3d 4c a0 06 3e 91 00 8e 3c
       0.020389736 0.05515756 0.13147086 0.017334254
000370 05 63 e8 bd e9 7a fb bd 7b f5 2f 3e 99 f3 ae bd
       -0.113470115 -0.122793026 0.17183487 -0.08542556
000380 ee 41 49 3e 9b 56 31 3c 10 50 8f bd 50 6e 80 3e
       0.19654056 0.010823871 -0.069976926 0.25084162
000390 42 07 53 3e 12 cd 17 be 0c 23 01 be 12 fa b7 3d
       0.20608237 -0.14824322 -0.12611026 0.08983244
0003a0 5e 06 14 3e d8 43 25 b9 05 db 7f 3e 52 77 12 be
       0.14455554 -0.000157609 0.24985893 -0.1430333
0003b0 3a ab e8 bd ea 19 8f 3e d7 e4 db 3e e2 ea d1 3e
       -0.11360784 0.27949458 0.42948028 0.40999514
0003c0 a4 9f 6d 3d 59 1b 19 be 57 73 81 3d dc a1 52 3e
       0.058013573 -0.14951839 0.063208275 0.20569557
0003d0 33 78 c8 3e e6 1d 2f bc f8 1a f2 3b 78 2f 17 be
       0.39154205 -0.010688281 0.007388469 -0.14764202
0003e0 ba 02 15 3e 5d 9a 38 3e
       0.14551821 0.18027635

conv1.bias f4 [10]
000000 cd 33 2f 3e fc 78 e2 bd 4e 49 96 3d 16 be f7 3d
       0.17109604 -0.11058232 0.073382005 0.12096803
000010 ce 86 47 3e df 94 19 3e ee 32 8c 3d 12 10 82 3e
       0.19485018 0.14998196 0.068456516 0.25402886
000020 ba 2f 13 3c 4a 5c c4 3d
       0.008983547 0.09587915

conv2.weight f4 [20, 10, 5, 5]
000000 44 4b 49 3c fd da 85 bd 4a 7f 43 bc 0c f7 a7 bd
       0.012286011 -0.06535909 -0.011932204 -0.08201417
000010 a0 b6 8f 3c 43 07 50 3d 83 0e b6 bd 35 30 9f bd
       0.017543137 0.050788175 -0.08889487 -0.07772867
000020 a4 8b f1 bd b5 b7 f0 bd 1a 32 5b bd 1a d3 1e bd
       -0.117942125 -0.11753789 -0.053514577 -0.03877554
000030 7c 83 8d bd 85 62 f3 bd 38 83 ba bd 6e 41 28 3d
       -0.06909844 -0.118840255 -0.09107059 0.041078024
000040 b6 93 cf bd 46 fe c9 bd 1b 98 f4 bb ce cf 63 bd
       -0.101355955 -0.09862952 -0.0074644214 -0.0556181
000050 85 77 6c bc 3b f9 85 bd 0e ec 2e bd 4b d7 70 bd
       -0.014432793 -0.065416776 -0.042705588 -0.05879907
000060 b7 8a fb bb ce e5 2e 3d 9d 7c c9 bc 41 52 13 bd
       -0.007676448 0.042699628 -0.024595553 -0.035967115
000070 57 db d4 3c 6b 19 5b 3d 7d 65 4f 3d 53 6f ad 3b
       0.025983496 0.053491037 0.050633896 0.005292812
000080 24 ab ea bb ab e3 a0 3c ea f1 4c bb 51 4f fc 3b
       -0.007161515 0.01963981 -0.0031272122 0.007699885
000090 3b a7 4a 3c 40 67 8e 3d 0d 06 ce bb 79 df 8e 3d
       0.012368972 0.06953287 -0.0062873424 0.06976218
0000a0 19 15 81 3d e3 43 05 bd 08 45 42 3d 82 01 05 bc
       0.06302852 -0.032535445 0.047429115 -0.008118035
0000b0 3d 2d 85 3c 82 40 9a 3b 27 f3 ab 3d 2e a4 c9 3d
       0.016256923 0.004707397 0.08395987 0.09845768
0000c0 57 46 dd 3d 82 01 8a 3d 09 23 8d 3d 4d 7e 85 bc
       0.10804432 0.06738569 0.06891448 -0.016295576
0000d0 03 2a 35 bd eb 2b a3 3c 15 53 fa bc 59 f9 62 3d
       -0.04422952 0.019918403 -0.030557195 0.055413578
0000e0 d4 36 8f bb db 8c 8f bb 9e c3 8a bc 4a 13 db bc
       -0.0043705497 -0.004380805 -0.01693898 -0.026742596
0000f0 50 11 ff bc d2 4e 22 3d 25 a7 4b 3d 76 dc 1b bd
       -0.031136185 0.03962595 0.04971995 -0.038052045
000100 14 df d9 3c 7d d3 cb 3c c4 c9 02 3d 92 b2 40 bd
       0.02659563 0.024881119 0.0319307 -0.047045298
000110 ec 3d c0 3c 8a 3c a0 3c 2c 68 dc bc 8f 1d d8 bc
       0.023467027 0.019560117 -0.026905142 -0.026381282
000120 b7 a5 43 bd 67 56 9b bc 15 97 c1 3c 3d f2 48 bd
       -0.04776546 -0.018962098 0.023631612 -0.04905914
000130 79 2e 57 3d 0d 86 b7 3d 3b 9d 23 3d 7d ee 60 3d
       0.052534554 0.08961115 0.03994487 0.05491494
000140 d0 bb cb 3c 4c 80 a9 3d dc 70 18 3e 05 67 39 3d
       0.02486983 0.08276424 0.14886802 0.045264263
000150 58 ff 9b 3d 75 06 1a 3d 77 ad 6c 3d 9f 5b 13 3e
       0.07617062 0.037603814 0.057782616 0.1439042
000160 d4 00 e4 3d 50 12 ac 3d a8 22 82 bd 37 c2 7f 3d
       0.111329705 0.0840193 -0.063542664 0.062441077
000170 72 a0 07 3e 6c e8 9d 3d 0e d1 9f 3c 15 28 16 bd
       0.13244799 0.077103466 0.019508865 -0.03665932
000180 5e b0 b7 3d 7c f0 93 3d ce f0 19 bc 64 71 58 bc
       0.08969186 0.07223603 -0.009395791 -0.013210628
000190 fc 17 2b bd ee 0b 1c bd 74 1d dd bc 8d 96 89 3d
       -0.04177092 -0.038097315 -0.026991583 0.067181684
0001a0 fd 98 8c bc 1e 3f 68 bd 44 b5 cf bc 43 1a 36 bd
       -0.017162794 -0.05670082 -0.025354989 -0.04445864
0001b0 1d 37 7d 3d 8b f0 bb 3c 6c 2b 41 3c 54 84 34 3c
       0.06182014 0.022941848 0.011790138 0.011017878
0001c0 53 82 27 bd b2 04 53 bd 8e 2b c5 3c 39 15 7a bd
       -0.04089577 -0.05151815 0.02406862 -0.061055396
0001d0 62 a5 bc bc 2e d2 bd bc 41 e5 a5 bb c4 c2 0d bd
       -0.02302808 -0.02317151 -0.0050627296 -0.03460957
0001e0 8b 1e 54 bd 5e 18 17 3d 80 fd 60 bd 67 68 32 bc
       -0.05178694 0.036888473 -0.054929256 -0.010889149
0001f0 78 84 8d 3c 09 15 d2 3d 97 de d4 3c ac 43 d0 3c
       0.01727508 0.102579184 0.025985045 0.025422893
000200 fc 41 13 3d 9a 5a 7b bc 3d 84 58 3d 65 5b 73 bd
       0.0359516 -0.015341425 0.052860487 -0.059413332
000210 88 33 42 bc bb ab 50 3d a1 3b d0 3c ee 12 e6 3d
       -0.011853106 0.050945025 0.025419058 0.11234079
000220 6f d6 6c 3d b2 e3 22 3c e1 84 0a 3d 63 81 a9 3c
       0.057821687 0.009941982 0.03381813 0.02069158
000230 42 7f d1 3d 52 52 3a 3d e8 7f 33 3b a1 9a 47 bc
       0.102293506 0.045488663 0.002738947 -0.0121828625
000240 cb 17 9c 3d a8 c2 c7 3d fe c9 6d 3d a8 65 d3 ba
       0.07621726 0.097539246 0.058053963 -0.0016128318
000250 e5 85 9d 3d ab 44 b4 3c b8 e5 d6 3c 72 ae 3a bc
       0.07691554 0.0220054 0.026232585 -0.01139413
000260 46 32 c9 bd 1b 4f 0a 3b e9 b3 e7 bd 84 d8 37 3b
       -0.09824042 0.002110428 -0.11313612 0.0028052637
000270 d7 6c 9c bc a4 8b b7 bd c1 76 27 bb 2b db d7 bd
       -0.019094868 -0.08962181 -0.002555296 -0.1053985
000280 f6 bc 38 3d 5f 07 f8 3c 7d a7 a1 bd c8 f1 40 3c
       0.045102082 0.030276952 -0.07893274 0.011776395
000290 9a b2 93 bd 5e 75 a0 bc 2b ac d9 3c 3b 5d 82 bd
       -0.072118 -0.019587215 0.026571354 -0.063654386
0002a0 8b 53 f7 bc 5e 19 1d 3c 7d a2 37 bd 56 52 94 bb
       -0.030191204 0.009588568 -0.044832695 -0.004526417
0002b0 10 a1 36 bd b6 93 1c bb 70 e3 83 bd 0d 96 ab bc
       -0.044587195 -0.0023891754 -0.06439865 -0.020945573
0002c0 c0 1d 99 bd a4 ed 4d bd 6a 7e 74 bd c1 31 cf bd
       -0.074763775 -0.05027546 -0.05969087 -0.10116912
0002d0 f8 97 9b bc 77 a1 9f bd ad 8b 8b bd 80 aa db bd
       -0.018993363 -0.07794469 -0.068137504 -0.1072588
0002e0 2a 22 92 bd 34 34 99 3d 29 51 37 bd 72 58 6d bd
       -0.071354225 0.0748066 -0.044755135 -0.057945676
0002f0 00 e0 93 bd cd de ed bd 7e b9 28 3d 44 8a 27 bc
       -0.07220459 -0.116147615 0.041192524 -0.010225836
000300 0d f2 c0 bd 3b 17 54 bc 7b 84 15 bd c2 9f 98 bc
       -0.094211675 -0.012944992 -0.036503296 -0.018630866
000310 93 96 3a 3d cb 47 39 bd d9 6c ef bc 0b 60 dd bd
       0.045553755 -0.045234483 -0.029226707 -0.10809334
000320 b2 bd b5 bd 7a d8 18 bc 5d cd 11 bd bf 3e a2 bd
       -0.08874072 -0.009328956 -0.03559624 -0.07922124
000330 80 5a 7c bd 17 0e 99 bc 6b 89 8e 3c 45 24 03 3d
       -0.061609745 -0.018683476 0.01739951 0.03201701
000340 07 bc 83 bd f5 cb 16 bc a4 60 c3 bb ec 00 9e bd
       -0.06432348 -0.009203901 -0.005962448 -0.077150196
000350 a1 25 46 bc 1c d4 a2 bd d5 d0 f4 3b f4 af e0 bb
       -0.012093932 -0.07950613 0.007471184 -0.0068569127
000360 ee 7c 8f bd 42 45 b0 bd c6 80 0c 3c f9 6b 55 bd
       -0.0700625 -0.0860696 0.008575624 -0.052104924
000370 68 0a 5e bd 08 c3 7c 39 42 cc 97 bd cc b9 80 bd
       -0.054209143 0.00024105248 -0.07412006 -0.06285438
000380 63 61 eb bc a3 77 97 bd f8 f1 df bc 67 00 00 bd
       -0.028732961 -0.07395866 -0.02733706 -0.031250384
000390 9d e9 80 bd 74 42 3a b8 78 ed 0b bd c1 a6 4b bd
       -0.06294558 -4.4407745e-05 -0.034162015 -0.049719576
0003a0 62 61 6c 3d a8 af 71 bc 1f b4 94 bc a9 89 ba bb
       0.05771006 -0.014751352 -0.018152295 -0.00569268
0003b0 34 da 9d bc af db 16 3d 96 d1 97 bb 29 10 d9 bc
       -0.019269086 0.0368306 -0.004633139 -0.026496964
0003c0 27 c3 8c 3c c8 f5 f5 bb 20 06 bd 3d 92 f7 85 bc
       0.0171829 -0.007506106 0.09229684 -0.016353402
0003d0 ca d4 23 bd c6 9e 01 3d 75 26 97 3d f3 b6 ac 3d
       -0.039997853 0.03164556 0.07380382 0.08433332
0003e0 e7 3e 76 3c 59 0f ad bd 03 b3 1e bc 63 72 cf bc
       0.0150296455 -0.08450193 -0.009686234 -0.025323099
0003f0 c0 e6 e4 3c 54 d4 23 3d 27 20 2d 3d ea 78 6f bc
       0.027942061 0.039997414 0.04226699 -0.0146162305

conv2.bias f4 [20]
000000 7a 7c 47 bd 3f e6 27 3d e5 74 42 3c 31 61 65 3d
       -0.048702694 0.040991064 0.01186869 0.056000892
000010 0c 1c c8 3c a1 36 07 3d 22 d3 31 3d ed e8 54 bc
       0.024427436 0.033011083 0.043414243 -0.012994987
000020 d0 66 e4 3c ac b3 66 bd 80 27 4e 3d f8 91 40 bb
       0.027881056 -0.056323692 0.05033064 -0.002938388
000030 94 36 23 3d 56 f9 47 3c ea 5f 35 bd 09 34 27 3d
       0.03984697 0.012205442 -0.044280924 0.04082111
000040 58 2c 01 3d e0 2d d9 3c 39 8a 87 bd c8 cb 1d ba
       0.03153643 0.026511133 -0.06618161 -0.00060194405

fc1.weight f4 [50, 320]
000000 eb 0c 9f bc 89 40 ea 3c 60 b7 51 3b a7 a3 fb 3a
       -0.01941534 0.028595226 0.003200017 0.0019198552
000010 73 22 57 bd 71 7b b5 bc 03 f2 9d bd ca cb b4 bc
       -0.052523088 -0.022153588 -0.07712176 -0.02206983
000020 89 8a b3 3c e1 90 9a bd 66 93 86 bd 8e 25 c5 3c
       0.021916645 -0.07547165 -0.06571083 0.024065759
000030 37 b1 4f 3c 66 a5 74 bb 1f eb 3f 3c ed 54 70 3d
       0.012676529 -0.003733003 0.011713772 0.05867474
000040 3b bf 82 3d 0a 27 b7 3c f2 ce de bc 1e 3b e4 3c
       0.063841306 0.022357482 -0.027198289 0.02786022
000050 5d 44 a0 3d c9 bf f2 3d 9a 67 29 3d 6b bb c5 bc
       0.07825539 0.11852986 0.041358568 -0.02413722
000060 b0 03 0e bc e1 f2 85 bb 0d f6 cb 3a c6 85 db bc
       -0.008667871 -0.0040877913 0.0015561 -0.026797187
000070 60 3b 5e bc d9 83 a1 bc b0 f3 a7 bc ab cd 9c bd
       -0.013563961 -0.01971619 -0.020501941 -0.076564156
000080 87 ba 2f 3c 5e 3a 03 3c b4 53 93 bc 11 d9 fc 3b
       0.010725624 0.008009521 -0.017984249 0.007716306
000090 a4 f6 24 bd 9a 7d 16 3d 1b 87 a9 3c 5b 9c 88 3c
       -0.040274277 0.036740877 0.020694306 0.016676119
0000a0 bc 0b 3d 3d 95 6b 7d 3b 8e 96 5e 3d ba 84 83 3c
       0.04615377 0.003866886 0.0543428 0.0160545
0000b0 2e e9 b8 bb fc 2e 80 bc 01 4d dc bc e5 bc 10 bc
       -0.0056430316 -0.015647404 -0.026892187 -0.0088340985
0000c0 a1 58 52 3d 2d 6e 94 bc 13 75 54 3c 7d 5d b6 3c
       0.051354054 -0.018118942 0.012967366 0.022261376
0000d0 f5 34 68 3c ca 8a 83 bc 08 32 ba bb b7 b5 c7 3d
       0.014172782 -0.01605739 -0.0056822337 0.09751456
0000e0 98 a4 ca 3d 73 31 9b 3d 5d e7 86 3d b5 8e 5d bb
       0.09894675 0.07577791 0.06587098 -0.0033806984
0000f0 f0 b8 5c bc 14 e5 4a bd 70 c7 13 bc f1 ab 90 bd
       -0.013471827 -0.049534872 -0.009019718 -0.07064045
000100 5e 0b 3d bc 7c 17 e7 bc f8 d6 11 bd 90 63 c8 ba
       -0.011538355 -0.02820944 -0.0356054 -0.0015288461
000110 d2 a9 fe bc a2 8f f1 3b 65 89 1e bd 99 1f 89 3c
       -0.031086836 0.0073718587 -0.03870525 0.0167387
000120 b4 1a d8 3c ca d0 eb ba 6a f3 fd bc c9 27 3b 3d
       0.02637992 -0.0017991301 -0.030999858 0.04569224
000130 75 43 72 3c 4d 91 16 bc 48 56 53 3d 3d 69 17 3b
       0.014786591 -0.009189916 0.051595956 0.0023103498
000140 19 e6 37 bd eb 61 e5 bc ad c3 97 bb 6a 63 ed 3c
       -0.044897173 -0.028000792 -0.0046314807 0.028978068
000150 bb 58 83 bb 0f b6 9a bd 66 4a a4 3c e7 30 6c bc
       -0.00400838 -0.07554256 0.020055007 -0.014415956
000160 00 d5 12 bd 74 dc b0 bc 06 ab 16 bd e5 bf bc bc
       -0.035847664 -0.021589495 -0.036784194 -0.023040721
000170 0d 4c d8 bd ed 3d cb 3b 80 ac 9f 3d 94 dd 74 3d
       -0.105613805 0.0062024505 0.07796574 0.059781626
000180 e2 36 36 3c 83 39 25 bc 26 fd a6 bd 51 d9 8e bb
       0.0111214835 -0.010084513 -0.08153753 -0.004359402
000190 2c 57 4c bd 92 9b 84 bd c9 12 90 bc c5 27 31 3d
       -0.04988782 -0.06474985 -0.017587082 0.043250818
0001a0 00 35 96 3c b6 ca 86 bc 49 c7 c1 3c a1 72 a5 3c
       0.01833582 -0.016454082 0.023654597 0.02019626
0001b0 30 f6 b8 bd 74 40 8b bb 12 27 42 3d 2f 57 48 3a
       -0.090313315 -0.004249627 0.04740054 0.0007642386
0001c0 43 3b 9f 3c f2 c8 7c 3b 8e 35 07 bc 85 d9 d6 3c
       0.019437438 0.0038571921 -0.0082525145 0.026226768
0001d0 d6 32 79 3c bd b5 74 3d 47 85 d9 3c de 5f 12 bb
       0.015209874 0.05974363 0.02655281 -0.0022334973
0001e0 2d 60 62 3d c6 48 ce 3b 03 33 35 bc 78 a2 99 bd
       0.0552675 0.0062952964 -0.011059525 -0.075016916
0001f0 1e e9 e5 bc 17 20 d1 bc 23 9e 4c bd 74 b7 30 3a
       -0.02806526 -0.025527997 -0.0499555 0.0006741204
000200 6d 73 7d bc c7 66 c3 bc 3e 5c 5f 3c 33 2f 3f bd
       -0.015469414 -0.023852719 0.013632832 -0.046675872
000210 ed cd c2 3c 3c 22 17 ba bf 95 43 bc 1c 35 be 3b
       0.023779834 -0.0005765294 -0.011937558 0.005804671
000220 7a 6e 0e 3e 51 8e 26 3d 78 e7 a7 3c 48 db b1 bd
       0.13909331 0.040663067 0.020496115 -0.08684403
000230 7f 53 a0 bd b8 e0 e8 bc 18 41 24 bc 4a c0 1d bd
       -0.078284256 -0.028427467 -0.010025285 -0.03851346
000240 01 13 a6 3d e7 ce 7c bd 22 af 76 ba b4 44 0f bd
       0.081090935 -0.061720755 -0.0009410252 -0.03497763
000250 04 85 8b bc 6f 3e 15 3c 4f 13 54 bd 16 ea 37 bd
       -0.0170312 0.009109124 -0.051776227 -0.044900976
000260 25 e9 b3 bd e3 b4 11 bd 55 53 f6 3b 1e e1 97 3c
       -0.08784703 -0.035572898 0.007517258 0.018539961
000270 2f ed 18 bd ef 72 28 3c 06 44 84 3d 95 e3 d6 3b
       -0.03733557 0.010281309 0.06458287 0.0065578916
000280 a5 da 2a bc 2d 31 01 3d 43 66 00 3c 0f c2 42 3d
       -0.0104281055 0.03154104 0.007836881 0.04754835
000290 b0 f0 e1 bc e3 11 95 3c f2 92 fd bc 93 e4 a4 ba
       -0.027580589 0.018197006 -0.030953858 -0.0012580327
0002a0 00 2d cd 3c 58 4e 33 3c c4 0e a0 bb 06 00 d3 bc
       0.025045872 0.010943972 -0.0048845727 -0.025756847
0002b0 50 5f 19 3d 63 0a 71 3d 66 eb 29 bd 56 a2 95 bc
       0.037444413 0.058847796 -0.04148426 -0.018265884
0002c0 76 e3 03 3d 61 c9 82 bd 07 b1 8b bc 46 61 34 bd
       0.032199346 -0.06386066 -0.017052187 -0.04403808
0002d0 8c e7 ad bb e1 0c 55 3c 98 5c 29 bd 97 ce 06 bd
       -0.0053071436 0.013003559 -0.04134807 -0.032911863
0002e0 17 ad 68 3d 76 bf 81 bc 93 9b 29 bd 22 10 8d bd
       0.056805696 -0.015838366 -0.041408133 -0.06887843
0002f0 0a 68 cb 3c 63 15 ac 3d 57 21 4e 3d 5d a2 61 3d
       0.024829883 0.08402517 0.050324764 0.055086482
000300 7e 7b 94 3b 93 44 18 bd 77 db 67 bd 44 ae 2a 3d
       0.004531323 -0.037174772 -0.056605782 0.0416701
000310 bb c7 37 3d 14 fd 25 bd ab 5c 33 3c 34 1a 01 3d
       0.044868212 -0.040524557 0.010947387 0.03151913
000320 a5 c7 13 3d 3f 48 bc 3c 18 52 23 bd 99 9a e3 3c
       0.036079068 0.022983668 -0.039873213 0.027783679
000330 94 94 85 bd 8a 09 6f 3c bb 40 40 3d d2 69 24 3d
       -0.0652248 0.014589677 0.04693673 0.04013998
000340 ed ac b7 bc 76 cf 48 bd 6c d9 40 bd db c8 67 3d
       -0.022421325 -0.049025975 -0.04708235 0.056588035
000350 a0 be 9e 3d 67 78 9c 3b 86 b4 da bc d7 cc 0e bd
       0.077512026 0.0047750953 -0.026697408 -0.03486332
000360 92 ec 7d bc 2a 73 4a ba cc b4 56 bd 41 08 a6 bc
       -0.015498297 -0.0007722849 -0.052418515 -0.020267608
000370 0d 0a 22 bd 20 65 1b bc 20 0e f8 bc ab 95 eb bc
       -0.039560366 -0.009484559 -0.030280173 -0.02875789
000380 54 e9 13 3d f7 6d b1 bc 28 80 b4 3d 79 60 9b 3d
       0.03611119 -0.02165888 0.08813506 0.0758676
000390 59 ea e9 bc 8c f6 36 3c ac 0f a7 3d de a0 ad bc
       -0.028554128 0.01116718 0.08157286 -0.021194872
0003a0 a6 eb 84 bd e8 a3 79 3d 9c 06 1d 3c cf 30 4e bd
       -0.06490259 0.06094733 0.009584095 -0.050339516
0003b0 11 45 ec bc 9e fa 40 bd ab 00 97 bc d1 dd 2c bd
       -0.028841527 -0.047114007 -0.018432936 -0.042203728
0003c0 0e 86 2f 3d 24 80 c1 bc 72 79 16 bd b8 e8 41 3b
       0.042852454 -0.023620673 -0.036736913 0.0029588174
0003d0 bd 66 39 bd 45 4e c8 3c 46 8a cc 3b b0 d3 be 3c
       -0.045263994 0.024451384 0.0062420694 0.0232943
0003e0 d4 03 83 bd 5e 72 25 bd 13 be 3b bb d1 25 2a bd
       -0.063972145 -0.040392272 -0.0028647229 -0.04153997
0003f0 c5 5c 9f bd 4f 82 ec bc 1d 20 2f 3d 04 12 41 3c
       -0.07781366 -0.02887073 0.042755235 0.01178408

fc1.bias f4 [50]
000000 e7 ec 1d 3d fd 68 47 bc c2 8c 15 bd 9d 6a 28 3d
       0.038556006 -0.012171027 -0.03651119 0.0411173
000010 fe 7e 1a bd 4a 84 35 3d ac d9 78 3d 28 cd 56 bb
       -0.037718765 0.044315614 0.060754463 -0.0032776091
000020 79 2c d6 bc fe b9 23 bd f5 9d b0 bb ee 6f 80 3d
       -0.026144253 -0.039972298 -0.0053899237 0.06271349
000030 77 86 c5 bc 8a dc a8 bc 81 9b fc bc 8b 92 9a 3d
       -0.02411197 -0.020612974 -0.030835869 0.07547482
000040 ad d1 a9 bb 58 85 b2 bc b3 b4 65 3d 74 d5 17 bc
       -0.005182466 -0.021792099 0.05608053 -0.0092672
000050 11 e5 94 3d 23 7e 49 3c e7 b0 9f 3b 88 6e 0e bd
       0.072702534 0.01229814 0.0048733833 -0.03477338
000060 97 4f c3 bc 63 92 11 3c 6a 8e 70 3d 46 23 6d bc
       -0.023841662 0.008884999 0.058729567 -0.014473742
000070 c5 a9 2d 3d 24 a2 ed 3a e3 7f 37 bd 7f 3b cd 3c
       0.042398233 0.0018129987 -0.044799697 0.025052784
000080 e0 44 74 3d c5 86 32 3d 0b 86 85 bb 5b 3f 24 bd
       0.059635997 0.043585557 -0.004074817 -0.040099483
000090 78 30 3c 3d 88 b5 9b b9 e4 38 83 3c ca 61 0c 3d
       0.04594466 -0.00029699155 0.016018339 0.034272946
0000a0 d0 a1 9c bb 54 56 8b 3c 98 ff 69 bd 59 21 1c 3b
       -0.0047800317 0.017008938 -0.05712852 0.0023823588
0000b0 6c 05 61 bd 4e 12 9c 3d 96 47 d9 bc e0 f7 65 3d
       -0.05493681 0.07620679 -0.026523393 0.056144595
0000c0 5a e1 64 3d 20 9b 4d 3d
       0.055878974 0.050196767

fc2.weight f4 [10, 50]
000000 38 3e 89 be 37 16 08 be 56 f4 5b be 53 ba ce bd
       -0.26805282 -0.13289724 -0.21479926 -0.10094132
000010 4c 4d 0c be 79 fa 79 be ff 31 71 be 8c 9b 1b 3e
       -0.13701361 -0.24411954 -0.23554228 0.15196055
000020 ba a9 62 bd 07 17 22 3e fb 37 41 3c c4 4b 02 3e
       -0.055337645 0.15829097 0.011793132 0.12724215
000030 ec 11 58 3e 39 1a 19 bd 3d 80 ec bd 75 45 81 bd
       0.21100587 -0.037378523 -0.11547897 -0.06312076
000040 a7 ea 75 3d 01 f2 f3 bc 0c d2 e5 bd 78 55 38 bd
       0.060038235 -0.029778482 -0.11221704 -0.045003384
000050 79 a6 e2 bd a8 18 6d 3e fb b6 2c 3e 3d 3e 8c bb
       -0.110669084 0.23153937 0.16866677 -0.0042798803
000060 f0 56 2b be 87 ca 49 3d 06 51 88 3c fd 9d 25 3e
       -0.16732383 0.04926541 0.016640197 0.16173549
000070 4e b4 3a 3e fb 6d 93 bd c7 5b 10 be 3b 46 1d be
       0.18232843 -0.071987115 -0.1409751 -0.15358822
000080 0f a3 87 be f3 2d 97 bd f9 58 86 be c3 bc 17 3e
       -0.2649159 -0.07381811 -0.26239756 0.148181
000090 e1 52 4b be c5 9c 4e be de 8e 5b be 43 07 87 3e
       -0.19855835 -0.2017699 -0.21441218 0.26372728
0000a0 ae 47 1e bd 6f 73 2c 3e d3 c7 23 bd 2d 5a af bd
       -0.038642578 0.1684091 -0.03998549 -0.085621215
0000b0 97 60 20 3e 71 c8 18 be 74 17 c6 3d 4b c2 1d bd
       0.15661846 -0.14920212 0.09672442 -0.03851537
0000c0 21 43 2c 3e b5 88 63 3e 04 f5 a3 bd 51 b4 54 3e
       0.16822483 0.22220118 -0.080057174 0.2077191
0000d0 94 03 82 bd 59 77 78 bd 12 96 0d be 95 0d 99 bd
       -0.06348339 -0.060660694 -0.13826779 -0.07473294
0000e0 02 78 12 3d b1 ec fd bd a9 f0 d4 3c b9 2f b1 bd
       0.03575898 -0.12398661 0.025993662 -0.086516805
0000f0 bb 35 7b bd 86 bc 9e 3d bd c3 38 be 91 3d 03 be
       -0.06133054 0.07750802 -0.18043418 -0.12816454
000100 d1 9b 9f 3d 80 8c 1b 3e cd 50 69 3e 05 4e 3c 3e
       0.077933915 0.15190315 0.2278473 0.18389137
000110 51 3e 5d be f0 9b 33 3e 90 81 98 3e 23 50 62 3e
       -0.21605803 0.17539954 0.29786348 0.22100882
000120 34 b9 86 be af 7f 0a 3e b3 a3 01 3e b0 d1 19 be
       -0.26313174 0.1352527 0.12660103 -0.15021396
000130 7a db 4b be b3 ae da bd 2e 55 44 be 85 e4 e6 3d
       -0.19907942 -0.106778525 -0.19173118 0.112740554
000140 bc 28 c6 bd 50 84 5a 3e e3 cd 3c 3e c8 5d 73 be
       -0.09675738 0.21339536 0.18437915 -0.23766243
000150 2c f0 2c be a1 9e 5c be d9 b9 7f bc 6f a3 14 be
       -0.16888493 -0.21544887 -0.015608274 -0.1451547
000160 ef 22 29 bd 4b bd e5 bd f8 13 48 3e ac ce 5b bd
       -0.04129308 -0.112177454 0.19538867 -0.053663895
000170 8a 36 1a be 3f 0e 85 3e 9b ba bc bd a3 2a 09 3e
       -0.15059868 0.2598743 -0.0921528 0.13395171
000180 d7 0d 36 be cf 9a 01 bc 3e 5f 06 be 46 4c fe 3d
       -0.17778717 -0.007910444 -0.1312227 0.12416892
000190 44 44 fa bd 06 fc d9 3d f0 91 1a 3d 2e ab da 3c
       -0.12220052 0.10643773 0.037736833 0.026692953
0001a0 87 40 a5 bd 5e 44 69 3d 62 c7 3f be 79 b9 08 3e
       -0.08068948 0.056949966 -0.18728402 0.13352002
0001b0 dc 5c b1 bd 12 f4 19 3e 4c c3 70 3e 60 c1 81 b9
       -0.0866029 0.15034512 0.23512 -0.00024748873
0001c0 68 5a 4e 3e a0 11 5a 3e c1 c8 19 be a5 3d 47 be
       0.20151675 0.21295786 -0.15017988 -0.1945711
0001d0 9c 68 58 3e 8d 94 7a 3e 13 3d ee bd 44 e6 5c 3e
       0.21133655 0.2447073 -0.11632743 0.21572214
0001e0 b0 ce 27 3c a2 b9 8e 3b 54 e6 18 be ae 5e 8a bd
       0.010242149 0.0043556252 -0.14931613 -0.0675634
0001f0 ea 7e 06 3e e2 6a b8 bd 4c 90 e3 bd c2 a2 98 3a
       0.13134351 -0.09004761 -0.11111507 0.0011645185
000200 e2 54 16 be 46 35 f1 bc 00 74 5c 3e 10 5a a0 3d
       -0.14680818 -0.029444348 0.21528625 0.07829678
000210 65 19 42 be 9b 3b 4b be 11 35 f6 bd 13 4c e5 3d
       -0.18955 -0.19846956 -0.1202184 0.11196151
000220 ea 01 e8 bd a2 4c 8c bc d3 f4 0d 3e 0b 54 9f 3d
       -0.1132849 -0.017126385 0.13862924 0.07779702
000230 78 df bb 3c c9 36 00 be a1 fe 19 be 00 5c b0 bc
       0.022933707 -0.12520899 -0.1503854 -0.021528244
000240 eb aa 15 3e c9 96 2d 3e ee f9 3b be 3e ac 35 3d
       0.14615981 0.16952051 -0.1835706 0.044353716
000250 86 f3 e9 3d c2 e9 ca 3d 9f 0b 24 3e 8c a8 24 be
       0.114234015 0.09907867 0.16020058 -0.1607992
000260 f5 0f 3c 3e 40 e1 62 be 4a 94 31 3e 1b 35 1c 3e
       0.18365462 -0.22156239 0.17341724 0.15254633
000270 8c 7f 35 be a9 cc da 3d 6f 7e 9a bd 99 70 0f 3e
       -0.17724437 0.10683567 -0.075436465 0.14007796
000280 17 a1 c6 bd 62 d4 d2 3d 75 01 b5 bd d5 a7 93 3d
       -0.09698694 0.10294415 -0.088381685 0.07209746
000290 75 a6 b6 bd 63 1c 43 be b9 36 cd bb ec a9 94 bd
       -0.08918468 -0.19053797 -0.006262627 -0.072589725
0002a0 db d2 04 be 8b 47 11 3e 25 f0 b2 bd a9 22 a4 3d
       -0.1297106 0.14187448 -0.0873721 0.080144234
0002b0 55 e4 4c be 64 41 23 bc 3e 34 23 3e 9a 54 12 3e
       -0.20008977 -0.009964321 0.15937898 0.14290085
0002c0 05 71 57 be 9a a0 27 3e 89 fd 9e bd c9 6c a1 bd
       -0.21039207 0.16369858 -0.07763202 -0.07882077
0002d0 0b 13 38 3e 3e cb 0b 3e 32 41 4b 3e 5d 01 16 be
       0.17976014 0.1365175 0.19849089 -0.14648958
0002e0 f3 a3 cc bd b8 71 03 3d a7 ae 98 3d 7f 23 d6 3d
       -0.09992208 0.032090873 0.07455187 0.10455989
0002f0 4e 18 af 3d fc ba 3a be 55 e5 7d be 9b 1e e5 3d
       0.085495576 -0.18235391 -0.24794514 0.11187478
000300 57 59 6b 3e 29 90 9a 3d 7c f7 e8 3d 55 d0 27 3e
       0.22983299 0.075470276 0.11375329 0.16388066
000310 6b 8f 5b be bc 2b 34 be 10 b7 23 be f0 d6 0c be
       -0.21441428 -0.17594808 -0.15987802 -0.13753867
000320 c8 10 1a 3e 4e fe 1b 3c c4 63 66 3e a4 91 74 3e
       0.15045464 0.00952108 0.22498995 0.23883682
000330 28 d0 58 3e 0c 47 0d be 71 9b b5 3d 19 95 76 be
       0.21173155 -0.13796633 0.08867539 -0.24080314
000340 53 5e cf bd 3c 15 5a be 8d b2 74 bd f3 a1 29 be
       -0.10125413 -0.21297163 -0.05974059 -0.16565685
000350 57 91 a6 bd 0c a1 18 be a0 e1 c3 bd 0b e7 17 be
       -0.0813319 -0.14905185 -0.09564519 -0.1483423
000360 78 6b 0b 3e d7 31 ef 3d d1 67 95 3e 92 a2 21 be
       0.13615215 0.11679428 0.29180768 -0.15784672
000370 47 88 76 3c a4 fb f4 bd 80 6e 69 be 3d b8 3a 3d
       0.0150471395 -0.11962059 -0.22796059 0.04558586
000380 a0 3b 19 be fd c3 11 bd 57 6b 5c 3e 5f 40 46 be
       -0.14964151 -0.0355873 0.21525322 -0.19360493
000390 82 da 87 bd 26 1a a1 bd 45 82 12 be 26 95 60 3e
       -0.06633474 -0.078663155 -0.14307506 0.21931896
0003a0 ed e4 ee 3d 86 03 34 3e 2e f3 6a 3e 2d 09 cc bd
       0.11664758 0.17579469 0.22944328 -0.09962688
0003b0 af e1 65 bd 41 49 cf 3d a2 0a db 3d 57 ee 15 bd
       -0.05612343 0.10121394 0.106953874 -0.03660425
0003c0 30 2e 52 3e e2 a3 bf bc 53 38 a8 bd 3d a1 8b bd
       0.20525432 -0.023393575 -0.08213868 -0.06817863
0003d0 2e 06 54 bc 3d 65 f7 bd 4f b4 8e 3d 43 83 16 3e
       -0.0129409265 -0.120798565 0.06967985 0.1469851
0003e0 b4 d9 40 3e e5 55 2c bd 7f cf 1e 3e c4 42 06 3e
       0.18833047 -0.042074103 0.15508841 0.13111407
0003f0 b7 b2 25 3d 09 9c ba bd 39 3f 4c 3e 58 c2 14 be
       0.04045364 -0.091117926 0.19945993 -0.14527261

fc2.bias f4 [10]
000000 76 ef 49 3c 09 0f 91 3e d0 4e 12 be 8c e7 a6 bd
       0.012325158 0.28331783 -0.14287877 -0.08149633
000010 78 25 96 bc b6 12 ad 3c eb b6 72 3d 63 e5 9b 3d
       -0.018328413 0.021127086 0.059256475 0.076121114
000020 7f 24 07 3e 90 4a 50 bd
       0.13197516 -0.05085236
