results/model.pth (torch, 90673 bytes, 8 tensors)

conv1.weight f4 [10, 1, 5, 5]
000000 49 c5 45 be e5 da ec bd 06 00 ca 3d c4 b0 71 be
       -0.1931354 -0.11565188 0.09863286 -0.23602587
000010 46 3f 01 be fe 10 e8 bc 76 10 2a be 00 6e 71 3d
       -0.12621793 -0.028328415 -0.16607842 0.058942795
000020 61 1c ae bd 9e 0a e5 bd 2a b2 16 be 77 f8 66 be
       -0.085015066 -0.11183666 -0.14716402 -0.2255572
000030 b5 9b 11 be 1a c0 f3 3d 2f bd a1 3d 0f 26 8e bd
       -0.14219554 0.11901875 0.07897412 -0.06940853
000040 d2 a6 6b be 99 80 c0 bd 14 ff 44 bd fa 10 c2 3c
       -0.23012856 -0.09399528 -0.048094824 0.023689736
000050 5c be 1d 3e 19 1d 02 be 79 e1 36 3e 94 80 b6 3c
       0.15404648 -0.12706412 0.17859448 0.022278108
000060 e5 84 0a be b4 26 2b 3e af 2e 80 3e 85 79 a8 bd
       -0.13527258 0.16713983 0.25035617 -0.08226303
000070 03 83 3d bd a2 01 44 be 24 26 fa bb 5f 2d 23 3e
       -0.04626752 -0.19141248 -0.0076339412 0.15935276
000080 f8 0e 94 bc cf 5d 66 be 78 d5 09 be 9b 41 bb 3e
       -0.018073544 -0.22496723 -0.13460338 0.3657349
000090 b0 ec ae 3e 6d c6 b9 3d da ab 9a bd 14 e0 0f be
       0.34164953 0.0907105 -0.07552309 -0.14050323
0000a0 9c 46 dd 3e 12 6b f0 3e b6 5b 59 3e 7e 56 68 be
       0.43217933 0.46956688 0.21226391 -0.22689244
0000b0 bd ae 22 be 4d ee 38 3e d6 48 1f 3e 81 4e c5 bd
       -0.1588697 0.18059655 0.15555128 -0.09634114
0000c0 64 61 da 3d 49 36 50 be aa 22 27 3e 71 53 b9 3d
       0.10663107 -0.20333208 0.16321817 0.09049118
0000d0 0e 1a 10 be c2 82 26 be d6 c4 92 bc e9 96 31 3e
       -0.14072439 -0.16260818 -0.017916124 0.17342724
0000e0 ac 9b 15 3d a2 87 08 3e cb fe 7a 3e d5 c8 22 3e
       0.036525413 0.1333299 0.24511258 0.15896924
0000f0 8b 7a 5d 3e 9d a0 96 3e c8 44 5f 3e fe d1 71 3c
       0.21628778 0.29419413 0.21803582 0.014759539
000100 48 22 d6 bd fb d5 07 bd 1f 3a 7c 3e 5f 59 06 bd
       -0.104557574 -0.033163052 0.24631546 -0.032800075
000110 32 63 1d bc 7b 93 f8 bd fe 71 cb 3d ad 8f 19 be
       -0.00960617 -0.12137505 0.09933852 -0.14996214
000120 85 e1 c8 3d 68 a2 08 be f6 1a fe 3c 88 cf 46 3e
       0.098086394 -0.13343203 0.031018715 0.19415104
000130 91 e8 2f 3e 54 39 1f b9 2f 2d a0 3e 0d 5a 54 3e
       0.17178561 -0.00015184778 0.31284472 0.20737477
000140 24 5a 3d bd d1 88 73 3e 4c 9a 47 3e 4e 97 b6 3d
       -0.046228543 0.2378266 0.19492453 0.08915578
000150 69 1a 29 be 14 9d a1 bd 0b fc a1 bd 42 af b5 3e
       -0.16513981 -0.078912884 -0.079094015 0.35485274
000160 da 5b 20 3e 2d a7 f5 bd 00 9f 23 3e cc 57 3b 3e
       0.15660039 -0.11994777 0.15978622 0.1829521
000170 5a b8 a1 3e cb 0f 5b 3c 9a c0 ed bd 5a 0b 1e be
       0.31585962 0.013370465 -0.116090015 -0.15434018
000180 97 e5 1a bd 73 dd 00 bd b2 8b 3d 3e f2 15 50 3e
       -0.03781661 -0.03146119 0.18510321 0.20320871
000190 c3 c1 86 3d 29 88 b1 3d a5 94 b0 3d 86 bd 97 3e
       0.06579926 0.086685486 0.08622102 0.29636782
0001a0 07 7d 21 bd 40 34 c6 3d df 19 b2 3e 4b 44 c7 3d
       -0.039425876 0.09677935 0.34785363 0.09729823
0001b0 2b d1 62 3e cb d3 ab 3e 31 a4 2a be 1f 2e 3d be
       0.22150104 0.33560023 -0.16664197 -0.18474625
0001c0 f9 99 ab bd 17 47 3a 3e 6a 36 7d 3e 28 c4 93 be
       -0.08378977 0.18191181 0.24727789 -0.28860593
0001d0 04 a2 7f 3d 51 e0 96 be b4 65 a3 be 62 6f 8b be
       0.06241037 -0.29468015 -0.3191353 -0.27233416
0001e0 26 2e 56 be 14 b0 86 be 10 4c 0d bd 75 04 85 be
       -0.20916042 -0.26306212 -0.034496367 -0.25979963
0001f0 b8 a2 bd bd 25 6b 81 be e9 5e 04 be 6b ff b2 3d
       -0.09259552 -0.25277057 -0.1292683 0.08740123
000200 a4 bc 59 3e 3d d5 87 3e 73 b6 c9 be c9 ef a7 be
       0.21263367 0.26529875 -0.3939701 -0.3280013
000210 e2 1a 95 bd 4e 1b 8b 3d e8 e4 cb 3e a2 f4 63 be
       -0.07280518 0.06792317 0.3982308 -0.22261289
000220 ff 20 12 be 34 8d 23 3e 22 50 ab 3e 9c c5 1d 3e
       -0.142704 0.15971833 0.33459574 0.15407413
000230 a3 15 d6 bd cb d8 7a be ab f9 23 bd 2c 23 78 3e
       -0.104533456 -0.24496762 -0.040033024 0.24232167
000240 bb 7e 99 3e 1d 6b 20 be 6a b4 20 bd f7 42 3e 3e
       0.299795 -0.1566586 -0.039234556 0.18580233
000250 11 cb 7c 3e 60 68 88 3d 46 32 a5 be d8 d0 8a be
       0.24686839 0.06660533 -0.32264918 -0.2711246
000260 8e 72 5c be 1e 32 8f be 59 34 3d be b6 20 7f 3d
       -0.21528074 -0.27967924 -0.18477 0.062287055
000270 11 4e 95 be 6a 29 61 be 44 60 42 be 29 a6 61 be
       -0.29161122 -0.21988454 -0.18982035 -0.22036041
000280 4f e5 5a bd 48 9c 3e bd ef 34 1c bc d3 be 1c be
       -0.053441342 -0.04653576 -0.009534105 -0.15307169
000290 22 1d 60 bd fa 72 ac 3e fc 70 ae 3e 93 e8 9c 3c
       -0.054715283 0.3368147 0.34070575 0.019153869
0002a0 49 ef 9f 3e ac 36 22 3e 71 58 81 3e 91 90 5e 3e
       0.31237248 0.15841168 0.25262788 0.21734835
0002b0 95 59 e6 3e 52 f1 8f 3e 47 0a 98 3e 4a 1e 16 3e
       0.4499022 0.281138 0.2969534 0.14659992
0002c0 48 6c 8a 3d 4a 44 93 3e d2 0d 7f 3e 5d 2e ad 3e
       0.06758934 0.28763038 0.24907616 0.33824435
0002d0 5b 25 42 3e 8d d4 f3 bc 23 68 15 be 7b 38 5e 3e
       0.18959562 -0.029764438 -0.14590506 0.21701233
0002e0 fc 35 d0 bd e1 51 64 bc 54 bf 01 be ab f4 c7 3d
       -0.10166547 -0.013935537 -0.12670642 0.097634636
0002f0 b1 25 62 be 5d a8 46 be 64 45 35 be 9e dc 2c 3c
       -0.2208469 -0.19400163 -0.17702252 0.010550646
000300 4f 96 ff 3c 8d 4c 28 bc 6d 5c 60 be 23 71 19 3c
       0.031199602 -0.010272157 -0.21910258 0.009365353
000310 25 9b 87 3d 2a 1e 55 be 70 14 54 be d7 93 13 3e
       0.06621388 -0.20812288 -0.20710921 0.14411865
000320 96 32 f6 bd 17 dc 21 bc e0 c0 44 3e 38 a0 ec 3d
       -0.12021367 -0.009879134 0.19214201 0.11553997
000330 ac df 74 3d 38 08 90 3e 3d 36 6a 3e c3 92 81 bc
       0.059783623 0.2813127 0.22872253 -0.015817052
000340 7b f4 97 3c 63 d7 99 3d 0b cf de 3d 5a 4f 0b 3e
       0.018549195 0.07511785 0.10879334 0.13604489
000350 13 8d 7f bc 11 fc f4 bd a5 67 30 be d3 b0 4a be
       -0.0155976 -0.1196214 -0.17227037 -0.19794016
000360 f3 92 2f be d9 7d 82 be d3 0c c4 3d c7 51 2d be
       -0.171459 -0.2548664 0.095727585 -0.16925727
000370 a2 f3 38 be 06 ab b9 3d d7 d0 2a be 3b d2 30 be
       -0.18061689 0.09065823 -0.16681229 -0.17267697
000380 bf 25 1f 3e 2d 49 26 3e 19 eb b0 3e bb 23 99 3e
       0.15541743 0.16238852 0.34554365 0.29910073
000390 5b 62 28 3e 5f dc 27 3d 9e 68 5d bd ca f8 76 3b
       0.1644377 0.040981647 -0.05405485 0.003768491
0003a0 2a f2 95 3d 61 65 80 3d d3 cb 24 3e 34 77 26 be
       0.0732158 0.062693365 0.16093378 -0.1625641
0003b0 33 ad 0f 3e 05 e1 1c 3e 9c f6 9c 3e 5a db 93 3e
       0.14030914 0.15320213 0.30656898 0.2887829
0003c0 82 49 3b be 8d 8d 2e be 02 3a 7d 3d c7 04 95 3c
       -0.1828976 -0.17046185 0.0618229 0.018190755
0003d0 96 3e 91 bc b0 b8 ba be 5f 79 ce be a2 54 c7 be
       -0.017730039 -0.3646903 -0.40326974 -0.38931757
0003e0 c9 7a 40 be b0 56 8b 3d
       -0.18796839 0.06803644

conv1.bias f4 [10]
000000 f2 4c 64 3e bf e4 6b 3e 78 d4 2f 3e 3d eb 18 3e
       0.22294977 0.23036478 0.17170894 0.14933486
000010 90 78 11 be a1 df 4c 3e f5 3f 26 bd 86 d3 ee bd
       -0.14206147 0.20007183 -0.040588338 -0.11661439
000020 c3 2b 0f 3d 1a 81 25 3e
       0.034953844 0.1616253

conv2.weight f4 [20, 10, 5, 5]
000000 51 38 65 bc 93 fa d3 bc 92 41 48 bd aa a3 09 bd
       -0.013990478 -0.025876319 -0.048890658 -0.033603348
000010 81 4e 5b 3c 43 77 32 3b 31 9b 75 3b 80 57 07 3d
       0.013385416 0.002723173 0.0037476534 0.03304243
000020 b1 42 04 3d 99 7b 67 bd 12 29 e5 3c a2 b5 81 3d
       0.032290164 -0.056514356 0.027973685 0.06333472
000030 1e 2f 9c bc b4 08 86 3d f4 40 51 3d f1 e9 93 bc
       -0.019065436 0.06544629 0.051087335 -0.018055888
000040 27 72 dd bb 4e a0 9b 3d ed 72 2a 3d bc 5c 34 3d
       -0.006757993 0.07598935 0.041613508 0.04403375
000050 d6 98 82 3d c8 b4 83 bc ed 43 73 bc 21 58 55 bc
       0.063768074 -0.016077414 -0.014847738 -0.0130215
000060 a7 b2 84 3d 7e 7d 17 3d 43 49 65 bd 6e 4e ac 3d
       0.06479388 0.036984913 -0.05597807 0.08413397
000070 6a e4 09 3e 08 a2 0d 3d da b1 03 3d cb 2d 33 bd
       0.1346604 0.034578353 0.032152034 -0.043744843
000080 fe e2 a9 bd 74 d0 87 bd 44 54 6e bd 94 b4 39 bd
       -0.082952484 -0.06631556 -0.05818583 -0.04533823
000090 61 ed 7a bd 12 68 aa bd 34 ca bf bd 5d a3 85 bd
       -0.06126154 -0.08320631 -0.09364739 -0.065253
0000a0 ad 91 91 bd 1a 41 90 bd 13 b2 31 bd 85 1b 52 bd
       -0.071078636 -0.07043667 -0.043382715 -0.051295776
0000b0 c4 c7 ff bd 40 8e 6a bb 16 34 8a bc dd 61 8e 3d
       -0.12489274 -0.0035790354 -0.01687054 0.0695226
0000c0 7c 69 8f 3d 17 6c d1 bc e7 2d ed 3c fe 91 9b bc
       0.070025414 -0.025564237 0.028952552 -0.018990513
0000d0 72 07 a0 3d fe bf e4 3c 21 b9 ba 3d 8b 6f aa 3d
       0.0781392 0.02792358 0.09117342 0.083220564
0000e0 89 d6 37 3d c9 f8 4d 36 a4 7b ab 3d ed 5e 3c 3d
       0.04488233 3.0692192e-06 0.08373192 0.045988966
0000f0 26 6c 94 3d 03 a8 4e bd 78 6a 8e 3c e5 89 b3 bd
       0.0724719 -0.050453197 0.017384753 -0.08766536
000100 80 a1 42 bc c7 63 ea bc 89 e2 09 3b c0 8b 7c bd
       -0.011879325 -0.02861203 0.0021039566 -0.061656713
000110 07 82 75 bc dd af b0 bd ba df 6f bd 4b 9e ce bb
       -0.014984614 -0.08627293 -0.05856297 -0.006305491
000120 54 97 81 3d 1f 6d f2 3c 88 5a 94 3b 3a a4 b4 3c
       0.06327692 0.029593049 0.0045273937 0.022050966
000130 b4 e5 3a 3a e9 fb d9 bc 5a 1a 85 3d 8a 1e 4f bd
       0.00071295653 -0.026609378 0.06499167 -0.050566234
000140 61 6b 93 3d a2 04 b3 3d 1d 4d 8b bc 1d 5f 9b bc
       0.07198215 0.08741118 -0.017004544 -0.018966252
000150 7f f2 29 3c c5 8b 3d 3d f2 c6 92 3c 43 00 9b bc
       0.010372757 0.046275873 0.01791713 -0.018921023
000160 e7 f0 2c bd 85 11 85 bd 44 c7 8c bd bf b7 7c 3c
       -0.04222193 -0.06497482 -0.068739444 0.015424668
000170 4f 9c 90 bd 0f e1 93 bd 21 72 e3 bd 07 b7 b7 bd
       -0.070610635 -0.07220661 -0.11105753 -0.089704566
000180 d5 1a 91 3b 64 59 53 3d 35 f2 6d bd b0 96 8f bd
       0.0044282475 0.05159892 -0.058092315 -0.07011163
000190 ea 9c 43 bd 45 18 2c bc a7 67 dd bc 72 60 6d 3d
       -0.047757067 -0.010503833 -0.027026964 0.057953306
0001a0 40 44 26 3d f8 5f 85 3d 2c 47 d7 3c 2f 84 58 3d
       0.040592432 0.06512445 0.026279055 0.052860435
0001b0 70 c2 19 3d 21 84 0c bc 18 8f 9d 3c 2c 0c b1 3d
       0.037538946 -0.008576424 0.019233271 0.086449
0001c0 b6 08 98 3d d3 6e 8a 3c 5b e1 9f bd 33 83 6f 3d
       0.074235365 0.016898548 -0.07806655 0.05847473
0001d0 b3 79 3f 3d 0b 20 0b bd e2 52 1c 3d a7 14 95 bd
       0.04674692 -0.033966105 0.03816498 -0.0727933
0001e0 4d be d6 bc b1 27 35 bd 2f 31 8a bd 44 14 09 bd
       -0.02621379 -0.044227306 -0.06747662 -0.033466592
0001f0 3e 2c 0d 3c b2 5f f9 3c 2a ab 13 3d dc e2 a8 3d
       0.008616505 0.030441139 0.036051907 0.08246395
000200 fb 76 0b 3e bc 7e 53 bc 22 b4 5c bd 07 d0 82 bd
       0.13619606 -0.012908634 -0.053882726 -0.06387334
000210 e8 56 8d 3d 82 94 ee bc 3a 21 48 bd dc e6 a0 bc
       0.06901342 -0.029123548 -0.048859812 -0.019641332
000220 71 dd a6 bd f2 4f c1 bd 89 d7 ba bd 68 ef f0 bd
       -0.08147705 -0.094390765 -0.09123141 -0.11764413
000230 bd 52 1e bd c3 19 22 bc df 21 e1 bc 07 54 86 bd
       -0.038653124 -0.009893837 -0.027481971 -0.06558996
000240 ee dc 70 bd bb 71 53 3d d2 1f 87 bc 26 27 79 bc
       -0.058804445 0.051622134 -0.016494665 -0.015207088
000250 0c 75 6e bd 08 cc fb bc eb 0a 11 bd 8b de c3 3c
       -0.058217093 -0.030736938 -0.035410803 0.023909828
000260 92 79 28 3d 35 dc 9e 3c c0 8e a2 bc be 7b 46 3d
       0.041131563 0.019392112 -0.01984346 0.048457853
000270 fb dc 4f bc cc 90 3f bd a4 fa 7a bd 80 d3 5c bd
       -0.012686963 -0.04676895 -0.061274186 -0.05391264
000280 02 b0 2d bd f7 1c 3a 3c d4 1e a9 bc bd 13 bf 3c
       -0.042404182 0.011359445 -0.020644583 0.023324842
000290 84 3b 0c 3d 19 5c 47 3c 81 3b 9c bc 0e 70 6d 3b
       0.034236446 0.012167954 -0.019071342 0.003623012
0002a0 5b 6a 19 bc 99 c4 8b bb 2c 3f 65 3c 16 ac 94 3d
       -0.009363736 -0.0042653796 0.013992112 0.07259385
0002b0 26 86 5b 3c 36 8f d1 3d 06 a9 45 3d 72 6b 2d 3d
       0.013398683 0.102323934 0.048256896 0.042338796
0002c0 6a d4 a0 3c 13 c4 fa bc 23 ad a4 3c 7a 0f 03 bd
       0.019632537 -0.030611074 0.02010209 -0.03199718
0002d0 af 67 78 3d a5 db 1f 3d ae ab c0 3c 90 49 0e 3e
       0.060645755 0.03902783 0.023519363 0.1389525
0002e0 81 33 54 3d 02 75 bc bc f5 fe 8b 3d e4 41 a0 3d
       0.05180693 -0.023005012 0.068357386 0.07825068
0002f0 6c 6e 0f bd c7 59 8d 3c a1 73 b7 3c 8a 97 87 bc
       -0.035017416 0.017254723 0.022394003 -0.016551752
000300 36 ed f3 3c 50 47 d8 bc 1f c3 4f bd 16 2e de 3c
       0.029776197 -0.026401192 -0.05072319 0.027121585
000310 2a 98 26 bd a4 4f 85 bc 23 a9 6e bc 54 2f 94 bd
       -0.04067246 -0.016273327 -0.0145666925 -0.072355896
000320 79 8f 42 3d e0 49 85 3c 8e d1 4b 3d d6 86 42 3d
       0.047500107 0.016270578 0.049760394 0.04749187
000330 a7 07 aa 3d 27 64 18 bd a7 3a 3a 3d 5b ab c1 3d
       0.08302241 -0.037204888 0.04546609 0.094565116
000340 01 11 cc 3d 1f e3 60 3d 18 ed a7 bc da b0 90 3c
       0.09964181 0.0549041 -0.020498797 0.017662454
000350 ef ba d4 3a 4d 72 88 3d da fd 25 3d 3f b9 61 bd
       0.0016230027 0.06662426 0.040525295 -0.055108305
000360 f7 ac e1 3c 05 b7 ed 39 ee ba 13 bc 5a 85 29 bd
       0.027548296 0.00045340523 -0.0090167355 -0.04138694
000370 fd 2b d0 3c db 48 2e bd 58 04 71 bd ee 2d 68 bd
       0.0254116 -0.04254995 -0.058842033 -0.056684427
000380 61 1e 4d 3d 1b e7 96 3c 48 cf d0 bd b7 46 87 bd
       0.0500778 0.018420747 -0.10195786 -0.06605285
000390 23 d7 47 bd d3 10 9a 3c 2d 1f cd 3c 79 6c 6c 3d
       -0.048789155 0.01880685 0.02503928 0.057720635
0003a0 4f a0 ba 3d 68 ba 17 3b e0 e1 74 3d f6 d5 3e 3d
       0.09112608 0.0023151878 0.059785724 0.046590768
0003b0 31 11 b2 3d 45 2e 52 bc ee 84 73 3d 05 46 1c bd
       0.08694685 -0.012828414 0.059452944 -0.038152713
0003c0 87 13 39 3d 45 b0 60 3d 4d 71 72 3d a1 78 84 bd
       0.04518464 0.054855604 0.059190083 -0.06468321
0003d0 32 d1 c4 bd ff eb 08 bd 2b 97 72 bd f8 f9 a9 3c
       -0.09610213 -0.03342819 -0.059226196 0.020749077
0003e0 3c bb ae 3c 49 f7 0a 3d ad 5a 96 3b f9 1e 3d bd
       0.021329515 0.033927236 0.004588446 -0.046172116
0003f0 e3 ef 91 bc 32 e8 4b bd 92 4c d5 3a ad 7f 8f 3d
       -0.017814582 -0.049781986 0.001627343 0.07006774

conv2.bias f4 [20]
000000 ad f1 22 3d 27 39 2b 3d db 42 17 bd 13 17 4f 3d
       0.03978126 0.04180255 -0.036928993 0.050559115
000010 b0 33 4c bd 42 fa 64 bd 03 d4 45 3d 80 00 1f bd
       -0.04985398 -0.055902727 0.048297893 -0.038818836
000020 22 f8 4b bb d1 13 72 bd 26 7e 4a 3d fe bf 10 3d
       -0.003112324 -0.05910093 0.04943671 0.035339348
000030 c3 9d 69 bc 0a 91 41 3d f5 42 94 bd e5 cd 4b 3c
       -0.014258805 0.04725746 -0.072393335 0.012439226
000040 a6 27 87 ba 1d f2 e7 bc 6f 27 85 3d b3 8d 30 3d
       -0.0010311499 -0.02831369 0.06501662 0.043103885

fc1.weight f4 [50, 320]
000000 85 3e 77 3d 5f bc 81 3d e8 8c aa bd c7 0e f2 bc
       0.060362358 0.06334757 -0.08327657 -0.029548062
000010 f2 61 49 3d ac 88 84 ba 0d dc 21 3c ee 30 26 bd
       0.049165674 -0.0010111532 0.009879124 -0.040574007
000020 7c 80 d9 3c 15 35 d9 3c cc 30 b8 3c 7a d3 3f 3d
       0.026550524 0.02651457 0.022484206 0.04683254
000030 da 05 14 3d 86 b3 42 3c 44 c4 2a 3d 33 c9 29 3d
       0.036138393 0.011883622 0.04169108 0.041451644
000040 97 17 28 bb 93 98 63 bc 85 f6 72 3d e1 6b 4b 3d
       -0.0025648826 -0.013891357 0.05931713 0.04966343
000050 aa cf a2 bd 62 99 62 bd 1c cf 1e bd f9 ac db bc
       -0.07949765 -0.05532206 -0.038771734 -0.026815878
000060 cc e6 56 3c 25 90 04 3d aa f9 03 3c 04 fb b9 3b
       0.01311655 0.03236403 0.00805513 0.0056756753
000070 e7 b4 42 bc ec bd 84 bc 33 f4 de 3b 97 97 9c 3c
       -0.011883951 -0.016203843 0.006804013 0.019115252
000080 95 8a d3 bd 9d bc a7 bd cf ea 02 bd cd 3f f3 bc
       -0.10329167 -0.08190272 -0.031962212 -0.029693509
000090 01 75 03 be 60 8d 00 3c 17 41 b8 3d bd e8 9d 3d
       -0.12837602 0.007846206 0.0899679 0.07710407
0000a0 c8 7f 32 bc 39 e9 e6 bb 2f c5 eb 3b 46 43 0d 3d
       -0.010894723 -0.0070468453 0.007195137 0.034487985
0000b0 84 b5 2a bd aa 32 8b bd 31 8b 9e bc 84 5e 17 3c
       -0.041677013 -0.06796773 -0.019353481 0.009238843
0000c0 85 1d 48 3d b5 88 aa 3d 88 b1 2c 3d bd e3 99 bd
       0.048856277 0.08326856 0.042161494 -0.07514141
0000d0 b3 db 26 bc ab 5c ff bc 50 79 63 bc cc 7e 6a bd
       -0.010184216 -0.031172117 -0.013883904 -0.05724983
0000e0 28 7b c6 bd e6 89 ba 3b 5b 1c fb 3b e6 13 41 3d
       -0.09691459 0.0056927083 0.0076632923 0.047138117
0000f0 4e 5b f9 bc 33 36 2c bc 04 ca 79 3c 89 b0 bf 3d
       -0.030439045 -0.010510969 0.015245918 0.09359843
000100 89 55 b2 bc d4 a5 8e bd 07 13 1f 3c 7b 41 a6 3d
       -0.021769302 -0.06965223 0.009709126 0.08117958
000110 a0 6f 85 bd a8 ae ab bd db 52 13 3d 59 60 8d 3d
       -0.065154314 -0.083829224 0.03596769 0.069031425
000120 32 fb b2 bb 5c 6d 66 bd b0 67 4a bd f0 e6 47 bc
       -0.0054620737 -0.056256637 -0.04941529 -0.012201056
000130 be 00 74 bc b9 0f e1 3b 88 a3 c5 bc 76 d9 be 3c
       -0.014892755 0.0068683294 -0.02412583 0.023297053
000140 cc 16 2a bd 08 bd 82 bc f5 b4 af bc 48 f1 6e 3d
       -0.041525647 -0.015959278 -0.021448592 0.058335572
000150 92 42 82 bd a6 f8 a8 bd d6 d8 8d 3c ad 6b d5 3c
       -0.063603535 -0.08250551 0.01731531 0.02605232
000160 f6 ea f9 3b 0d 52 e9 bb 3e 41 55 bd ee e8 85 bd
       0.0076268865 -0.007120377 -0.052064173 -0.065385684
000170 2d f0 87 bc 5e ee 6c bc b9 f4 d4 bc 5e 06 0c bc
       -0.016594017 -0.014461128 -0.0259956 -0.00854644
000180 39 3a 44 3c fe 79 28 bc db 5f d2 bc 82 06 c6 bd
       0.011976772 -0.010282991 -0.025680473 -0.0966921
000190 98 32 fa 3d 0a f8 f7 3c 54 39 97 bd 02 a5 b2 bd
       0.12216681 0.030269641 -0.07383981 -0.08722879
0001a0 bb 2e a4 3d cb 90 42 3c af 73 e7 bc 08 28 b6 3a
       0.08016726 0.011875342 -0.028253404 0.0013897428
0001b0 16 28 4c 3d 55 19 5c 3c e9 85 15 3c cf cf ed 3c
       0.049842916 0.013433774 0.009126165 0.029029755
0001c0 c3 a4 ac 3c 6c a5 bd 3d c6 9d 72 3d 3c 4a a1 3c
       0.021074658 0.09260067 0.059232496 0.019688718
0001d0 dc 06 ea bc b4 01 59 3c d5 d0 64 bb 05 21 7d 3c
       -0.028567724 0.013245035 -0.0034914513 0.015449767
0001e0 31 81 e8 bd 9f 10 ca bc 81 84 94 3b 6f 97 87 3c
       -0.11352766 -0.024666129 0.0045323973 0.016551701
0001f0 9f 64 ac bc 49 1e dd bc 76 b9 6d 3d 07 78 fd 3c
       -0.021044074 -0.02699198 0.058038197 0.030941023
000200 ab 80 0b 3d 6a 46 16 bc 7e 2e 33 bd b7 c8 f7 bc
       0.034058254 -0.009172061 -0.04374551 -0.030247075
000210 eb fc 9d 3d 33 69 49 3d 40 f2 0a 3d ae 8b 63 bc
       0.07714256 0.04917259 0.033922434 -0.013888283
000220 b1 11 f3 bc 61 33 59 3d 27 90 44 bd a5 61 d4 3c
       -0.029671522 0.053027514 -0.047989037 0.025925467
000230 68 c4 37 bd 49 75 15 3d 0f 54 86 bd 34 d5 8c bc
       -0.044865042 0.036488805 -0.06559002 -0.017191507
000240 99 38 0b 3d b9 ee 17 3d 6d 14 cf 3c c3 37 58 bd
       0.033989523 0.037092898 0.025278294 -0.052787554
000250 a7 83 97 3d b0 b6 37 3d 11 0e aa ba bd 4b 43 bd
       0.073981576 0.04485196 -0.0012974163 -0.04767965
000260 0a 1f 82 bb 21 f2 47 3d f3 e3 83 3b ce ff 02 bc
       -0.0039709853 0.048814896 0.0040249764 -0.007995559
000270 5c 9b af 3b 77 9d 5e 3d 6f 31 dc bc 4e e7 61 3d
       0.0053590965 0.05434939 -0.02687904 0.05515223
000280 5a d2 e0 bd 8d f8 42 bc ab 8d 51 bd b5 76 11 3d
       -0.109776214 -0.011900079 -0.051160496 0.0355136
000290 20 04 5e 3c e3 8c 5c bd 5a 18 31 bd 17 5c a9 bc
       0.013550788 -0.053845298 -0.043236114 -0.020673795
0002a0 4d 02 a2 bc 85 54 0e bd f1 01 ce bb b6 f2 58 bd
       -0.019776488 -0.034748573 -0.0062868525 -0.052965842
0002b0 2b 15 a0 3b 53 f1 1e 3d 67 e1 a4 bc 48 f9 de bc
       0.004885336 0.038804363 -0.020127011 -0.027218476
0002c0 3b 83 25 bd 5c 50 d3 bc f7 2b 91 3d 6d c6 58 3d
       -0.040408354 -0.025795154 0.07088464 0.05292361
0002d0 32 2e ee bd 9d c8 e1 bd ba 88 1e bd 23 87 07 bd
       -0.11629905 -0.11024592 -0.03870461 -0.03308786
0002e0 62 e2 79 bd 75 a3 cd bb b7 04 65 3d f8 d9 b6 3c
       -0.06100691 -0.006275589 0.0559127 0.022320732
0002f0 3a 52 dd bb f8 00 9d bc 64 f5 93 bb bf b6 3d bd
       -0.006754187 -0.019165501 -0.004515337 -0.04631686
000300 af ec 86 3d 6e 05 0b 3d 15 19 32 bd e0 05 49 bd
       0.065881126 0.033940725 -0.04348095 -0.04907787
000310 17 c5 df bc d3 ea 36 3c d8 53 24 bd 2c 07 21 3d
       -0.02731566 0.011164385 -0.040119022 0.03931348
000320 f2 f5 01 bc 08 90 00 3d 8b 51 f1 3c 65 bd 10 bd
       -0.007932173 0.03138736 0.029457828 -0.03533687
000330 ce 97 b6 3a c6 b2 0f bd 1e f6 07 bc 2c c1 35 3d
       0.0013930739 -0.0350826 -0.008298425 0.044373676
000340 fb 7a ab bd c4 79 ba bd 34 e7 ee 3c 3b e1 18 3c
       -0.08373066 -0.09105256 0.02916298 0.009331043
000350 50 d7 73 3d 35 4d 05 3d 97 d5 0b bd af ee b7 3d
       0.05953151 0.032544333 -0.034139242 0.08981072
000360 57 a0 b2 3c 80 ca 06 bc 45 3d 2c bc 6b 4a 2d 3b
       0.021804972 -0.008226991 -0.010512655 0.0026442062
000370 06 10 18 bc 8b 45 fc 3c 74 ad c6 bc 22 c4 7c bd
       -0.009281164 0.03079488 -0.02425263 -0.061710484
000380 f5 c7 95 3d 22 39 d3 3c 5f 31 90 bd ff dc 39 3a
       0.073135294 0.025784079 -0.07040667 0.0007090121
000390 e1 08 e7 bb 5e 9d 72 bb 21 f8 59 3d c6 86 46 3c
       -0.007050619 -0.0037020068 0.05321515 0.012117093
0003a0 7f 97 3f bc e7 ef 4d bd 99 82 92 3d 4d a4 80 3d
       -0.011693834 -0.050277617 0.07153816 0.06281338
0003b0 6e b4 e3 3c 09 45 93 bd cd 71 6e 39 b9 01 81 3c
       0.027795997 -0.07190902 0.00022739843 0.015747892
0003c0 16 69 30 3c 2f 78 65 3d c9 0e 1b bd da 30 03 bd
       0.010767242 0.05602282 -0.037855897 -0.03202901
0003d0 95 fc 2c 3c be 9f 91 bd 56 ec 09 3c 0b be c9 bc
       0.010558267 -0.071105465 0.008418163 -0.024626752
0003e0 e2 38 7a bd c1 74 53 bd 5c 9d c4 3d 0c c7 5d 3d
       -0.061089404 -0.051625017 0.096003264 0.054144904
0003f0 dd 8c e8 ba f6 f8 84 3c 58 37 46 bb 8e c1 d5 3c
       -0.0017742176 0.016231995 -0.003024539 0.02609327

fc1.bias f4 [50]
000000 30 23 29 bd 0c 4d 4d 3c 05 1b 01 3c ba 91 0b bd
       -0.041293323 0.012530576 0.007879977 -0.034074523
000010 2d 9d ba 3c 68 15 2f 3d 07 0e 44 3d 91 72 aa 3a
       0.022780025 0.042745024 0.04786494 0.0013004114
000020 7a 30 43 3d 7e 4d 05 3d c6 94 e2 3c 61 60 1f 3c
       0.047653653 0.032544605 0.027658831 0.009727568
000030 57 e4 45 bd b9 75 14 ba 19 bd 66 3b 78 64 6a 3d
       -0.048313465 -0.0005663294 0.0035207926 0.05722472
000040 a1 d6 72 3d 43 80 68 bb a6 a1 23 3d 35 94 26 3d
       0.059286717 -0.003547684 0.03994908 0.040668685
000050 ee 7d 15 3b 49 ba 3a bd fe 44 14 bd b1 60 75 3a
       0.0022810656 -0.04558781 -0.03619861 0.00093604164
000060 75 f3 ac bb e2 34 9a 3b 7e 3e 44 bc 03 52 c7 3c
       -0.005278046 0.004706011 -0.01197779 0.024331098
000070 e7 aa f6 3a de e9 26 3c e7 7a c0 3a bf bb 18 3d
       0.0018819243 0.010187594 0.0014685065 0.037288424
000080 83 d8 65 3d 83 b0 2c 3d 68 2a b3 38 63 3b e8 bb
       0.056114685 0.042160522 8.543284e-05 -0.0070871576
000090 83 5e fa 3c 78 69 e3 bc 7c e4 4f 3d 9a 63 fa 3c
       0.030562645 -0.027760252 0.05075501 0.030565072
0000a0 c3 ee 1a 3d 4b 16 21 bc 24 c0 cf 3b 56 62 c0 bc
       0.037825357 -0.009831975 0.0063400436 -0.02348439
0000b0 e5 d9 b4 bc 1e 20 50 3c 9e d7 06 3d 92 70 2c bc
       -0.022076556 0.01270297 0.032920472 -0.010524886
0000c0 9c 91 7b 3d 0d d2 84 3d
       0.06141816 0.064853765

fc2.weight f4 [10, 50]
000000 1e 18 23 be 79 e0 41 bb cc 14 1f 3e 95 db 16 3c
       -0.15927169 -0.002958326 0.15535277 0.009207626
000010 e2 17 97 bd 76 13 bb bd ab df 4c bd fd 0e 72 bd
       -0.07377602 -0.09134571 -0.050017994 -0.059096325
000020 da ee af 3d f8 46 54 3e 85 f1 6f be 11 d4 e6 bd
       0.08590479 0.20730197 -0.23431976 -0.11270917
000030 9c a7 02 be 5b fb 89 3e 7f d5 69 be 49 d6 fc bd
       -0.1275925 0.26949582 -0.22835349 -0.12345559
000040 20 4e 24 3e 43 97 01 be 23 c7 14 be 03 73 3b 3d
       0.16045427 -0.12655358 -0.1452909 0.04576398
000050 67 b4 3f be 69 0c 37 3d e4 26 f5 bc 38 4b 35 be
       -0.18721162 0.04468957 -0.029925771 -0.17704475
000060 dc 6d 0b 3e dd d7 1f 3e 63 f8 6c bd 3b 83 77 3e
       0.13616127 0.15609689 -0.057854068 0.24171154
000070 19 c0 03 3e ee d7 36 bd 08 83 3a 3e 06 83 13 3e
       0.12866248 -0.04463952 0.18214047 0.1440545
000080 7e 65 b9 bd ba 0e 87 3d fa ef 01 be 99 74 53 be
       -0.09052561 0.06594606 -0.126892 -0.20649947
000090 72 e8 1a be da e7 5c 3e ef c6 1d 3e 17 3b 2b bd
       -0.15127733 0.2157282 0.15407918 -0.0418044
0000a0 ad 5e 70 3e dc f5 08 be ac 70 22 be a2 80 e3 bd
       0.23473616 -0.13375038 -0.15863293 -0.11108519
0000b0 3e 24 85 bd cf 05 85 3d 3c dd 02 be 22 ad 58 be
       -0.06501053 0.064952485 -0.12779707 -0.21159795
0000c0 5c 57 88 3c 2f c8 4b 3e 4b a1 03 3e 58 86 da bd
       0.016643219 0.19900583 0.12854497 -0.10670155
0000d0 04 b6 34 be 06 6d 92 3d 01 c7 8e bd e2 cc 41 3e
       -0.17647558 0.07149701 -0.06971551 0.18925813
0000e0 17 96 79 3e 4e bd e9 bd 08 ee 33 be 88 01 1f be
       0.24373661 -0.1141306 -0.1757127 -0.15527928
0000f0 ba 9f 20 3e 45 f0 8d be fa d7 5f bd 87 de 1f 3e
       0.15685931 -0.27722374 -0.05464933 0.15612231
000100 00 91 d2 3d 27 53 0a be 57 11 0c 3e cb 53 92 bd
       0.10281563 -0.13508283 0.1367849 -0.071448885
000110 72 63 12 be 22 3c 56 be fd 7f 9a 3d 22 61 19 be
       -0.14295748 -0.20921376 0.07543943 -0.1497846
000120 ac 7b ad bd 28 d3 00 be 13 4f 50 bd 73 a2 3b be
       -0.08470854 -0.1258055 -0.05085666 -0.18323688
000130 38 df fc bd db c1 28 be 2c 7a 0e be 76 00 b5 3c
       -0.12347263 -0.164802 -0.13913792 0.022094946
000140 dc 1b 94 3d 50 c9 12 3e 18 63 83 be 8e 25 ad 3d
       0.07231876 0.14334607 -0.2566154 0.084544286
000150 28 55 40 3e d8 34 35 3e e2 0b 2b 3e af 57 c4 bd
       0.18782485 0.1769594 0.16703752 -0.09587037
000160 5d 99 d0 bd 57 7c c0 3d 77 e9 92 bd 54 0d d4 3d
       -0.10185502 0.09398716 -0.07173436 0.10354105
000170 4e 86 81 3e 53 e0 70 3e 9b a3 00 3e 5e 53 87 be
       0.2529778 0.23523073 0.1256241 -0.26430792
000180 54 e0 94 3d c9 b2 e5 3d c9 40 ec bd 69 94 28 3b
       0.0726935 0.11215741 -0.11535794 0.0025723225
000190 66 cc 3b 3e 6c 62 f9 3c e2 06 5e 3b 49 6c 99 bc
       0.1833969 0.030442439 0.0033878614 -0.018728392
0001a0 0c 1b ab 3d 89 17 02 3e 89 c5 87 bc c2 36 26 3e
       0.08354768 0.1270429 -0.016573684 0.16231826
0001b0 58 1b 3f be 65 0b 9a 3d 46 a8 52 be 01 2a f0 bd
       -0.18662775 0.075217046 -0.20572004 -0.117267616
0001c0 a2 dc c2 3c 44 50 4f bd 33 b5 e3 3d 8b 20 53 3e
       0.023786847 -0.050613657 0.111185454 0.20617883
0001d0 9d 24 2d 3e ab 2f b5 bd fb 84 17 3c 58 d3 79 bd
       0.16908498 -0.088469826 0.009248014 -0.06099257
0001e0 f5 df 13 be 6c f3 24 3e 91 a6 0d 3e 97 a4 8d 3c
       -0.14440902 0.16108483 0.13833071 0.017290397
0001f0 87 7a 86 bc be 6b 05 be 29 e3 13 be 93 86 63 3e
       -0.016415847 -0.13029382 -0.14442123 0.22219305
000200 26 bd 02 be 93 72 11 be 3b 78 f1 bd 12 59 8d bb
       -0.12767467 -0.14203863 -0.1179051 -0.0043135965
000210 e8 2b 36 bc dd a7 ab 3d 16 3c 18 bd 1f 03 69 bd
       -0.0111188665 0.08381627 -0.037166677 -0.056887742
000220 01 7e f2 bd d2 57 27 3e 24 6a 43 3c d1 1a 0c be
       -0.118404396 0.16342095 0.011927161 -0.13682105
000230 fa 9c 76 bd 4c 04 3c be 62 60 78 3e 1b 7b b3 3d
       -0.0602083 -0.18361014 0.24255517 0.08763715
000240 72 d3 24 3e 76 9d b6 bd 91 9c 4e 3e b3 9a 5f be
       0.16096285 -0.08916752 0.20176913 -0.21836357
000250 40 a9 18 3e 4e 8e 3e 3e 1f 57 5f 3e 09 9a 31 3e
       0.14908314 0.18608972 0.21810578 0.17343916
000260 40 6e 8e 3d cb 49 35 3d 7e 9f 5b bd e1 ed 67 3e
       0.06954622 0.044259828 -0.0536189 0.22649337
000270 01 df 04 be b8 91 a4 bd 77 49 e4 bd 7d c0 0a be
       -0.12975694 -0.08035606 -0.11146825 -0.13549991
000280 c9 be 5a be 1f 96 4e 3e 3b a0 e0 3c 7a 94 60 3c
       -0.21361841 0.20174454 0.027420154 0.013707275
000290 6f 83 d2 3d cf 1e b7 bd 56 85 7c bd d2 9b c3 3d
       0.10278975 -0.08941423 -0.061650597 0.09551205
0002a0 ca 97 d3 3b e7 dd 19 3e 94 e7 5d 3e 64 2a 5e bd
       0.0064573037 0.15026055 0.21670371 -0.054239646
0002b0 09 ea c7 bd 59 09 a5 3a 5d 48 2e 3d 4f 87 4d bd
       -0.097614355 0.0012591287 0.04254948 -0.05017787
0002c0 b7 62 10 be 9a f2 49 bd 0e 00 93 bd 95 95 54 3e
       -0.14100157 -0.04930363 -0.07177745 0.20760186
0002d0 bd 7b 4c 3c d4 24 30 be f6 8d 98 bc d5 93 bd 3d
       0.012480673 -0.17201549 -0.01862238 0.09256712
0002e0 b4 3f 42 be 7d 4d 53 3c ce b9 62 be 43 6a 2f 3e
       -0.18969613 0.012896893 -0.22141191 0.1713038
0002f0 eb 8a 5d 3e 8f 21 75 3e c6 7c 2c be 2c cf 19 be
       0.21635024 0.23938583 -0.16844472 -0.15020436
000300 df 11 58 3e 4f 0a 58 be 3c a1 15 3e 69 7c 93 bd
       0.21100567 -0.21097682 0.14612287 -0.07201464
000310 66 5c 05 bd ad 2d 6c 3d 22 01 91 bd 71 e1 7b 3d
       -0.03255882 0.057660747 -0.07080294 0.061494295
000320 45 04 93 bd 72 34 d4 bd 3f ab 6d be 15 c2 07 bc
       -0.07178549 -0.10361566 -0.23209856 -0.008286019
000330 d4 62 c7 bd 95 e2 d3 3b 56 a3 4f 3e 04 ae 24 bd
       -0.09735647 0.0064662197 0.20277151 -0.040205017
000340 8b 7a 08 3e 2b 3c 94 bd 5b bb 05 3e ec 20 01 3e
       0.13327996 -0.07238039 0.13059752 0.12610215
000350 ee e5 7e 3e 0d 08 29 bc e3 e0 d2 3d 66 91 69 3e
       0.24892399 -0.010316861 0.102968 0.22809371
000360 7c 99 71 be 2d 1f 02 3e b1 f6 77 3e c7 26 4f be
       -0.23593706 0.12707205 0.24215199 -0.20229636
000370 12 ca 6e 3d e9 a7 0e 3e 10 6a 1e 3d e6 ed 3b 3e
       0.058298178 0.1393124 0.038675368 0.1835247
000380 a7 59 86 be 38 7b 72 be 9b 02 8c bd f2 2a 38 bd
       -0.26240274 -0.23679817 -0.068364345 -0.04496283
000390 c5 60 3e be 51 18 73 bd c6 d5 05 3e 2b 8d 19 3e
       -0.18591602 -0.05934936 0.1306983 0.14995258
0003a0 6d 0e 6b 3e b0 d9 69 be 23 b6 2e 3d f7 06 32 3e
       0.22954722 -0.22836947 0.042654168 0.1738547
0003b0 b7 af 3a 3e 33 b9 96 3d 7b da 8a bd 86 f5 4d bc
       0.18231092 0.07359543 -0.06779953 -0.012570744
0003c0 60 b0 d2 3d f7 5a 73 be 4e 2b 31 be c8 b9 61 3e
       0.10287547 -0.23765169 -0.17301676 0.22043526
0003d0 11 3b 84 be b8 d3 e0 3d eb 11 1a be 56 58 07 3e
       -0.25826314 0.10977882 -0.15045898 0.13217291
0003e0 98 60 6f be 82 6f 78 be 3d a3 55 be 89 51 0e 3e
       -0.23376691 -0.24261287 -0.20863052 0.1389829
0003f0 0a 6c d5 3d a6 66 88 3d 3f ef f8 bd 29 01 a8 bd
       0.104209974 0.06660204 -0.121550076 -0.08203346

fc2.bias f4 [10]
000000 3f 41 20 bd 80 63 8b 3d 62 0e c3 bd 42 54 4a 3c
       -0.039124724 0.068060875 -0.09524228 0.01234919
000010 58 99 54 bd 13 e8 97 3a 38 a4 70 3c f3 09 90 bd
       -0.051904052 0.0011589549 0.01468759 -0.07033148
000020 01 f5 36 3e 03 62 eb 3c
       0.17866899 0.028733259
