results/model.pth (torch, 90673 bytes, 8 tensors)

conv1.weight f4 [10, 1, 5, 5]
0	0xbe962c40	-0.29330635
1	0xbe5f4655	-0.21804173
2	0xbeb0addd	-0.34507647
3	0xbdeb3118	-0.11483973
4	0xbe32512b	-0.17413776
5	0xbe26357d	-0.16231342
6	0xbdd36e24	-0.10323742
7	0xbdde6fa8	-0.108611405
8	0xbe857321	-0.260644
9	0xbe547822	-0.20748952
10	0x3e7e75ec	0.24849671
11	0x3e8bf350	0.2733407
12	0x3e0f8d57	0.1401876
13	0xbd09099a	-0.033456422
14	0x3d3bff9e	0.045898072
15	0x3dcb805a	0.099365905
16	0xbd5b9487	-0.053608444
17	0x3d3ce481	0.046116356
18	0x3e851b2a	0.25997287
19	0x3e67e7b3	0.2264698
20	0x3e6c10aa	0.23053232
21	0xbaca9ec2	-0.001545869
22	0x3e299ba8	0.16563284
23	0x3ea89fb0	0.32934332
24	0x3c30d28c	0.010792386
25	0xbe7e32ea	-0.2482411
26	0xbe819dd9	-0.2531574
27	0xbda16a0a	-0.078815535
28	0x3e72ba4a	0.23703876
29	0x3e924e40	0.28575325
30	0xbe91d654	-0.28483832
31	0x3c79a553	0.01523717
32	0xbd5ac5cf	-0.0534113
33	0x3e88d82a	0.2672742
34	0x3e9beae8	0.30452657
35	0xbead6a3f	-0.33870122
36	0xbe358a6d	-0.17728586
37	0xbd4c64e7	-0.049900915
38	0x3efed08f	0.49768493
39	0x3e1df3f0	0.15425086
40	0xbe86bd68	-0.2631638
41	0xbd38271a	-0.044959165
42	0x3eaec24c	0.34132612
43	0x3e8f3d88	0.27976632
44	0x3e3e59fa	0.18589011
45	0x3d3476d3	0.044058632
46	0xbda0fab6	-0.07860319
47	0x3ea7f98f	0.32807586
48	0x3e54eed6	0.20794234
49	0x3cac959a	0.02106743
50	0x3e18c334	0.14918214
51	0xbdd462e0	-0.103704214
52	0x3e76e53c	0.24110883
53	0x3e332501	0.17494585
54	0x3e3f63bd	0.18690391
55	0xbe414285	-0.18873031
56	0x3e18ac31	0.14909436
57	0xbcf0c17b	-0.029389134
58	0x3e9ad54f	0.30240867
59	0x3e3fa013	0.18713407
60	0xbe89c9e6	-0.2691185
61	0xbe89c53f	-0.269083
62	0xbe7a0165	-0.24414594
63	0xbe1641bc	-0.14673513
64	0x3e04412f	0.1291549
65	0x3d060901	0.03272343
66	0xbe15144e	-0.14558527
67	0xbdb404f0	-0.08790004
68	0xbe9248ca	-0.2857116
69	0xbea2ea98	-0.31819606
70	0x3cf62e0a	0.03005125
71	0xbbde5f63	-0.0067862733
72	0x3cae29ef	0.02126023
73	0xbdff10d8	-0.124543846
74	0xbdf94228	-0.121708214
75	0xbca816b8	-0.020518646
76	0x3e3eeae0	0.18644285
77	0x3e1992c7	0.14997397
78	0x3d442191	0.047883574
79	0xbdec09de	-0.115253195
80	0x3ec2c896	0.3804366
81	0x3ec866db	0.39140972
82	0x3ec83a95	0.39107195
83	0x3ee52cc8	0.44760728
84	0x3e91a857	0.28448746
85	0x3e8c0d0c	0.27353704
86	0x3e7a5295	0.24445565
87	0x3e12671c	0.14297146
88	0x3e8d8c81	0.27646258
89	0x3e857259	0.26063803
90	0xbe966701	-0.2937546
91	0xbeac2568	-0.3362229
92	0xbe8304ea	-0.25589687
93	0xbe422316	-0.18958697
94	0x3cb01ce0	0.021498144
95	0xbeabe286	-0.3357126
96	0xbe90ee44	-0.28306782
97	0xbe81a96e	-0.25324577
98	0xbe2e3d7c	-0.17015642
99	0x3dc8e971	0.098101504
100	0xbca666fa	-0.020312775
101	0xbb856309	-0.004070644
102	0x3df5fdc5	0.12011293
103	0xbdb55df0	-0.08855808
104	0xbe1c8b92	-0.15287617
105	0xbdd56335	-0.10419313
106	0x3c3a3a61	0.011366458
107	0xbdeaa4a3	-0.11457183
108	0x3cf8bb74	0.030362822
109	0xbe46e4e0	-0.19423246
110	0xbe4b1f48	-0.19836152
111	0xbe3e597a	-0.1858882
112	0xbdb3ff86	-0.087889716
113	0xbe750c99	-0.23930587
114	0x3d49be8a	0.049253978
115	0xbc78a117	-0.015175126
116	0x3d701514	0.05861385
117	0x3d764894	0.06012781
118	0xbe1746bc	-0.14773077
119	0x3e0287f3	0.12747173
120	0xbd9d79c5	-0.07689241
121	0xbe2267fd	-0.15859981
122	0xbb872a70	-0.004124932
123	0x3e367de4	0.17821461
124	0x3e501ecf	0.20324253
125	0x3e116a24	0.14200646
126	0x3cdb247b	0.026750794
127	0xbe279677	-0.16365992
128	0xbd58614a	-0.052827157
129	0x3e2f9bb8	0.17149246
130	0xbe3075e6	-0.17232475
131	0xbe457d08	-0.19285977
132	0x3da75ed0	0.08172381
133	0x3e3e7524	0.18599373
134	0x3e87f163	0.2655135
135	0xbd342378	-0.043979138
136	0xbe1369dc	-0.14395851
137	0xbe033b40	-0.12815571
138	0xbd123462	-0.035694487
139	0x3e9322e1	0.28737548
140	0xbe5e0cb0	-0.21684527
141	0xbe0001aa	-0.12500635
142	0x3e50f981	0.20407678
143	0x3e7d766f	0.2475221
144	0x3c772032	0.01508336
145	0xbd8c390a	-0.06846817
146	0xbce83165	-0.028343866
147	0x3debadf0	0.11507785
148	0x3b8fe0bb	0.0043908036
149	0x3dc1e85a	0.09468146
150	0x3e79d58b	0.24397866
151	0x3e34ff06	0.17675409
152	0x3eaf8964	0.34284508
153	0xbe0cb561	-0.13741066
154	0x3c8c37b7	0.01711641
155	0x3cd360f4	0.025803067
156	0xbc840821	-0.016117157
157	0x3e737afc	0.23777384
158	0x3d409506	0.04701712
159	0x3e019315	0.12653764
160	0xbe38f268	-0.1806122
161	0xbdafb71b	-0.085798465
162	0x3e752b75	0.23942359
163	0x3e7b89da	0.24564305
164	0x3eacf42e	0.33780044
165	0x3d53959b	0.051656347
166	0x3dddc646	0.10828833
167	0x3e8cdd95	0.27512804
168	0x3e02a2f3	0.12757473
169	0x3e5adbcf	0.21372913
170	0xbe04e8e9	-0.12979473
171	0xbd8b3872	-0.067978755
172	0xbd5f00ed	-0.054444242
173	0xb9a138c5	-0.0003075061
174	0x3de24669	0.11048586
175	0x3db88736	0.090101644
176	0xbdb3d77d	-0.087813355
177	0x3e0c9543	0.13728814
178	0xbe0a5bce	-0.13511583
179	0xbd4cf19c	-0.050035104
180	0xbe231778	-0.15926921
181	0x3e241788	0.16024601
182	0x3ce82c5f	0.02834147
183	0x3bd71835	0.006564165
184	0x3e50cf91	0.2039168
185	0x3e0172f8	0.12641513
186	0xbe3cfbb6	-0.18455395
187	0xbc203696	-0.009778639
188	0xbd9d139a	-0.07669754
189	0x3e124834	0.14285356
190	0xbe58e0d2	-0.21179512
191	0xbcae914f	-0.021309523
192	0x399f30c3	0.00030363174
193	0x3ddd94e0	0.10819411
194	0xbd9320e5	-0.071840085
195	0xbdc16e7e	-0.09444903
196	0xbdb4d2c2	-0.08829261
197	0xbe21df91	-0.1580794
198	0xbd7897b8	-0.060691565
199	0xbdd0d77e	-0.10197352
200	0x3e4550af	0.1926906
201	0x3e76bbed	0.24095125
202	0x3eaf256b	0.34208235
203	0x3e6e2ea6	0.23259982
204	0xbd08dbee	-0.033412866
205	0x3e9818e8	0.29706502
206	0xba4d11aa	-0.00078227615
207	0x3e8d2d8a	0.27573806
208	0xbe2d181d	-0.1690373
209	0xbd5f9932	-0.054589458
210	0xbdfd4aa0	-0.12367749
211	0x3de4a830	0.11164892
212	0xbd8361a8	-0.06415111
213	0xbe57f2fc	-0.21088785
214	0xbe8ad310	-0.27114153
215	0xbe0b021b	-0.13575022
216	0xbc16053d	-0.009156522
217	0xbe523fdc	-0.20532173
218	0xbe428136	-0.18994603
219	0xbdc91e49	-0.098202296
220	0x3e3e71e8	0.1859814
221	0x3e074a5d	0.13211961
222	0xbc297a86	-0.010344153
223	0xbe87bc8c	-0.26511037
224	0xbe49b4ab	-0.19697826
225	0xbd254ccd	-0.040356446
226	0x3e682292	0.22669438
227	0x3e3b7e8f	0.18309997
228	0x3edd151f	0.43180177
229	0x3c93cb8a	0.01804139
230	0xbe0201cb	-0.12695996
231	0xbd28262b	-0.041052025
232	0xbd01b3c2	-0.03166557
233	0x3e271e94	0.16320258
234	0x3e7a258c	0.24428385
235	0xbe73afd4	-0.23797542
236	0xbde2dddb	-0.11077472
237	0xbd8410c7	-0.064485125
238	0x3db07e65	0.08617858
239	0x3e09122b	0.13385837
240	0xbe248d42	-0.1606951
241	0xbdd9ca50	-0.10634291
242	0xbe8828e8	-0.2659371
243	0x3e21dff2	0.15808085
244	0x3db62cde	0.088952765
245	0xbe8270fe	-0.2547683
246	0x3ce41781	0.027843239
247	0xbdf4e8d2	-0.119584695
248	0x3dd4030b	0.10352143
249	0x3e901044	0.2813741

conv1.bias f4 [10]
0	0xbd513b7e	-0.051082127
1	0xbe1c580b	-0.1526796
2	0x3d10f467	0.03538933
3	0x3e149262	0.14508966
4	0xbe296b8e	-0.16544935
5	0xbd3da5f3	-0.04630084
6	0x3da5a4bf	0.080880634
7	0xbdbaa711	-0.09113897
8	0xbccb81d6	-0.024842184
9	0xbc4c1f95	-0.012458702

conv2.weight f4 [20, 10, 5, 5]
0	0xbc917e4c	-0.017760418
1	0x3bd5438d	0.006508297
2	0xbd93b29a	-0.072118
3	0xbd41cd40	-0.047314882
4	0x3c7a9c29	0.015296021
5	0x3cea757d	0.028620476
6	0x3d26d27c	0.040728077
7	0xbd3f89f7	-0.046762433
8	0xbd20dde9	-0.03927413
9	0xbd9ec605	-0.07752613
10	0x3cb0042d	0.021486366
11	0x3d48078a	0.048835315
12	0x3ce699a0	0.028149426
13	0x3d5db956	0.05413183
14	0x3d601c8d	0.05471473
15	0x3ce87063	0.028373903
16	0x3d9905c8	0.07471806
17	0x3d380366	0.044925116
18	0x3d1bd458	0.038044304
19	0x3d92b9bd	0.07164333
20	0xbd1896dc	-0.037253246
21	0x3d852956	0.06502025
22	0x3d8af7ee	0.0678557
23	0x3d83b560	0.06431079
24	0x3d314bc3	0.043285143
25	0xbd9072e0	-0.07053161
26	0xbd45f62c	-0.04833047
27	0x3c2e0ae9	0.010622718
28	0xb985b6f1	-0.0002550404
29	0xbc3b2c8d	-0.011424196
30	0xbcd06cae	-0.025442448
31	0xbd981e00	-0.07427597
32	0xbd679e8b	-0.056547683
33	0xbc2b428f	-0.0104528805
34	0xbd74b7b2	-0.059745498
35	0xbd938f95	-0.072051205
36	0xbd1ee509	-0.038792644
37	0xbde2ac74	-0.11068049
38	0xbde143b6	-0.10999243
39	0xbdc8ac78	-0.09798521
40	0xbc4f5066	-0.012653446
41	0x3d19a064	0.037506476
42	0xbd10c477	-0.035343613
43	0xbd282de3	-0.041059386
44	0xbcc2d0a7	-0.023781134
45	0x3d23ee77	0.04002234
46	0x3d74a410	0.059726775
47	0x3c3b65d5	0.011437853
48	0xbd306a21	-0.043069962
49	0x3c0d0b25	0.008608614
50	0x3cff32cd	0.031152153
51	0xbd380de1	-0.04493511
52	0x3c5fdc87	0.013663418
53	0x3d64e15a	0.055878974
54	0xbcc52874	-0.024067141
55	0xbd3b8bca	-0.04578761
56	0x3d4cd903	0.050011646
57	0xbcc7595c	-0.024334602
58	0x3d758970	0.059945524
59	0xbc2bb900	-0.010481119
60	0x3d6b3114	0.05741985
61	0xbd449268	-0.047991186
62	0x3d634815	0.055488665
63	0x3d593ecc	0.053038403
64	0xbbd00512	-0.0063482607
65	0x3beefc41	0.0072932546
66	0x3d2d1c73	0.04226346
67	0x3d0c656e	0.03427642
68	0xbc4f05f7	-0.0126356995
69	0x3d4636b7	0.048392024
70	0xbc7669ef	-0.015039905
71	0x3d66d4ed	0.056355406
72	0x3d5ef148	0.054429322
73	0x3bffbff3	0.0078048646
74	0x3d986969	0.074419804
75	0x3b629cad	0.003457825
76	0xbd7d78db	-0.061882835
77	0x3c6be3c6	0.014397567
78	0xbcacb049	-0.021080153
79	0x3da69b35	0.08135072
80	0x3d247258	0.04014811
81	0xbce54e9a	-0.027991582
82	0xbc1f47f3	-0.009721744
83	0xbccb49b4	-0.024815418
84	0x3de72a27	0.11287337
85	0x3ce946bd	0.028476113
86	0xbdbb74a2	-0.09153105
87	0x3bc22ce7	0.005925763
88	0xbdbfb658	-0.09360951
89	0xbd4e72c9	-0.050402436
90	0xbda88240	-0.08227968
91	0xbdb9b8c4	-0.09068444
92	0xbcd4eafa	-0.025990952
93	0xbccdf2d3	-0.025140202
94	0xbdb2bdc7	-0.087276034
95	0x3c08c7e2	0.008348437
96	0x3c49312e	0.012279792
97	0xbc1a810f	-0.009430184
98	0x3e040e25	0.1289602
99	0x3e111684	0.14168745
100	0x3b8f7b1b	0.004378689
101	0xbc419ecd	-0.011817646
102	0x3d058370	0.03259605
103	0x3d76a52c	0.060216114
104	0xbc307922	-0.010771068
105	0x3b44cdcf	0.0030029898
106	0xbcb5352e	-0.022120085
107	0xbce208d3	-0.027592098
108	0xbd9af1fe	-0.075656876
109	0xbc110339	-0.008850866
110	0x3c7ac738	0.0153062865
111	0xbcf0ec9c	-0.0294097
112	0x3d766e4f	0.060163792
113	0x3d064b9f	0.03278696
114	0x3d662a68	0.056192786
115	0x3d02dc47	0.031948354
116	0xbc16ee03	-0.00921202
117	0x3d4b63ea	0.049655832
118	0x3d090b85	0.03345825
119	0x3bb22426	0.005436438
120	0xbc6fbb4f	-0.01463206
121	0x3d61f7fc	0.055168137
122	0x3d66fc1f	0.056392785
123	0xbcc3c8fe	-0.023899551
124	0xbd835644	-0.06412938
125	0x3d24f493	0.040272307
126	0xbd4a4f49	-0.04939202
127	0xbd6f697d	-0.05845021
128	0xbd38013e	-0.04492306
129	0x3da4c3a7	0.0804513
130	0xbd1240d9	-0.035706375
131	0x3ccc10ae	0.024910297
132	0xbd980435	-0.074226774
133	0xbc49593f	-0.012289344
134	0xbcd04255	-0.025422255
135	0xbd971628	-0.07377273
136	0x3cb0a680	0.021563768
137	0xbd4fbe47	-0.050718572
138	0x3a862dd1	0.0010237043
139	0xbd604ce7	-0.05476084
140	0x3c93d478	0.018045649
141	0xbd4a6b71	-0.04941887
142	0xbc6ae07c	-0.014335748
143	0xbd9ec91a	-0.07753201
144	0xbdb4f106	-0.08835034
145	0x3cfee81d	0.03111654
146	0xbc587b41	-0.01321298
147	0x3c224b9c	0.009905722
148	0xbb93c395	-0.004509399
149	0xbd919548	-0.07108551
150	0x3d1a9076	0.037735425
151	0xbd86486e	-0.065567836
152	0xbd253cb1	-0.040341083
153	0x3c09507f	0.008381008
154	0x3d3a34b9	0.045460436
155	0xbd45656f	-0.048192438
156	0xbd9b5b35	-0.07585756
157	0xbd01869f	-0.031622525
158	0xbd16dc41	-0.036831144
159	0xbd3e1b30	-0.046412647
160	0xbd0b3ab2	-0.033991523
161	0xbd67183f	-0.056419607
162	0xbd624076	-0.055237256
163	0xbdeac0c9	-0.11462552
164	0xbd640a27	-0.055673745
165	0xbdb5cbff	-0.088768
166	0xbd309077	-0.043106522
167	0x3cad0865	0.021122167
168	0x3c23f963	0.010008189
169	0x3ca65569	0.020304399
170	0x3b8c8b87	0.004289094
171	0x3d43369e	0.04765951
172	0x3d64c1b3	0.05584879
173	0x3d123505	0.035695095
174	0x3d9e9dcc	0.07744941
175	0x3afa78d5	0.0019109497
176	0x3d0b41d1	0.033998314
177	0x3d527d61	0.051389102
178	0xbcca3626	-0.024684023
179	0xbcd89006	-0.026435863
180	0xbd1f82e0	-0.03894317
181	0x3d436918	0.047707647
182	0xbc82f8eb	-0.015987834
183	0x3cb5b80d	0.022182489
184	0x3d8ae323	0.06781604
185	0xbd312d61	-0.043256167
186	0x3d6c8823	0.057747018
187	0xbd7c667e	-0.06162118
188	0x3af40251	0.0018616413
189	0xbd48ea92	-0.04905183
190	0xbba32427	-0.004978675
191	0xbd740af4	-0.05958076
192	0x3c5f7eb0	0.0136410445
193	0xbc810bef	-0.01575276
194	0xbcd924d1	-0.026506813
195	0xbd164b4c	-0.036692902
196	0xbc2a877d	-0.0104082795
197	0x3ce93d25	0.028471539
198	0x3d4353c5	0.04768731
199	0x3d23aabd	0.03995775
200	0x3db4430c	0.08801851
201	0xbd486874	-0.04892774
202	0xbbe85801	-0.007090569
203	0xbc912b88	-0.017720953
204	0xbc64148d	-0.013920915
205	0x3d194087	0.037415054
206	0x3bd2ce52	0.0064332867
207	0xbd297afb	-0.04137705
208	0xbd88f550	-0.06687415
209	0xbc85fa38	-0.016354665
210	0x3cccce11	0.025000604
211	0xbd7c4a73	-0.061594438
212	0x3c64c155	0.01396211
213	0xbd2cd32a	-0.04219357
214	0x3c31b548	0.0108464435
215	0x3c828418	0.015932128
216	0xbd81cd42	-0.06337978
217	0xbce49e19	-0.027907418
218	0x3c6bfc73	0.01440345
219	0xbbe70a8b	-0.0070508174
220	0x3d119a28	0.035547405
221	0x3d51b8a7	0.05120149
222	0xbd29d48d	-0.04146247
223	0xbcad3dcd	-0.021147633
224	0x3d0a78f8	0.03380677
225	0xbd6ce08d	-0.057831336
226	0xbd286130	-0.04110831
227	0xbc836179	-0.01603769
228	0xbd36103e	-0.044449084
229	0xbceaea7e	-0.028676268
230	0xbca24e6c	-0.019812785
231	0xbd786f1e	-0.060652845
232	0xbd47e43d	-0.04880165
233	0x3d0d83ff	0.03454971
234	0x3d4ffe6a	0.050779738
235	0xbb6f289f	-0.0036492718
236	0x3b4e3515	0.0031464745
237	0xbd93a060	-0.072083235
238	0xbd48d7b9	-0.049033854
239	0xbc222aa5	-0.009897863
240	0xbd5345bd	-0.05158018
241	0xbcadd31c	-0.021218829
242	0x3d17c523	0.03705324
243	0x3c7cdc41	0.015433372
244	0xbd9ef8ea	-0.0776232
245	0x3d5e63b3	0.0542943
246	0x3d6461d1	0.055757347
247	0x3c15fe04	0.0091548
248	0x3d501948	0.05080536
249	0xbc96de0c	-0.018416427
250	0xbc8776aa	-0.016536076
251	0xbd0cb13b	-0.034348708
252	0xbd0c16db	-0.034201484
253	0x3c52ee13	0.012874144
254	0xbd8c464e	-0.06849347
255	0x3b87fa0e	0.004149682

conv2.bias f4 [20]
0	0x3c05fa34	0.008177329
1	0x3cd419da	0.025891233
2	0xbd7f2485	-0.062290687
3	0x3a608ac1	0.0008565598
4	0xbcaa5ca5	-0.02079613
5	0x3c7703a6	0.015076553
6	0x3cab6fe7	0.020927383
7	0x3d5fb474	0.054615453
8	0xbd11c9ff	-0.03559303
9	0x3caff2e6	0.021478128
10	0x3d02afeb	0.03190605
11	0xbd8b916b	-0.06814846
12	0xbd2d800c	-0.042358443
13	0xbbd90ff1	-0.006624215
14	0xbd9e7e77	-0.07738965
15	0xbd78ba48	-0.060724527
16	0x3cbde3ff	0.023180006
17	0xbd0d17bb	-0.03444646
18	0x3c94a6dd	0.018145973
19	0xbd8f3a45	-0.06993536

fc1.weight f4 [50, 320]
0	0x3d5c770a	0.053824462
1	0xbb8d9a60	-0.0043213814
2	0xbcffd541	-0.031229617
3	0xbd4fc97d	-0.050729264
4	0x3b976822	0.004620568
5	0xbd120d0c	-0.035656974
6	0xbccd01e7	-0.025025321
7	0x3c6c6e9f	0.014430671
8	0xbc25844a	-0.010102341
9	0xbd6408fd	-0.055672634
10	0xbcf71c5d	-0.030164892
11	0xbd9e1358	-0.07718533
12	0xbda979c0	-0.08275175
13	0xbd3ced95	-0.046125013
14	0x3bb4a933	0.005513334
15	0xbcc19fc7	-0.023635758
16	0x3d6dcb11	0.058054987
17	0x3ccc8600	0.02496624
18	0xbda8526c	-0.08218846
19	0x3d2510a6	0.04029908
20	0xbb115e94	-0.0022181617
21	0x3ca2d57d	0.01987719
22	0x3d298dfa	0.041395165
23	0x3d822216	0.063541576
24	0xbd2d6e2b	-0.042341392
25	0xbd0ffa47	-0.035150792
26	0x3d55c9a9	0.05219427
27	0xbb9e00c7	-0.00482187
28	0x3977d995	0.00023636811
29	0xbd9030e1	-0.07040573
30	0x3c1f7f13	0.009734887
31	0x3cf350a1	0.029701533
32	0xbb565112	-0.003270213
33	0xbcf5f94d	-0.030026102
34	0xbd9ef9b6	-0.07762472
35	0x3d328a19	0.04358873
36	0x3da81541	0.08207179
37	0x3c1613ad	0.0091599645
38	0x3d4f42dd	0.050600875
39	0x3d0d4d2d	0.03449743
40	0xbb879a8d	-0.004138297
41	0xbd082d90	-0.033246577
42	0xbd0e3251	-0.034715954
43	0xbd01d2b1	-0.03169507
44	0xbb91f843	-0.004454644
45	0x3d63f0a8	0.05564943
46	0x3d1d4a0a	0.038400687
47	0xbd66bd44	-0.05633284
48	0xbbf72927	-0.0075427475
49	0xbd817d22	-0.06322695
50	0x3d91cf51	0.071196206
51	0xbd4eae00	-0.050458908
52	0x3d1d7d9d	0.038449872
53	0x3d86967f	0.065716736
54	0xbd769222	-0.060197957
55	0xbaf5ab09	-0.0018742989
56	0x3d45d0d2	0.04829485
57	0xbcf6da0f	-0.030133275
58	0xbd398359	-0.04529128
59	0x3d5ad464	0.053425208
60	0xbcc36eeb	-0.0238566
61	0xbbd6d835	-0.0065565356
62	0x39deaa9d	0.00042470256
63	0xbd9896bb	-0.074506246
64	0x3d16391b	0.036675554
65	0x3c48bb00	0.0122516155
66	0xbd6a26e4	-0.057165995
67	0xbd45b023	-0.04826368
68	0xbdbb9748	-0.09159714
69	0xbdc000e2	-0.093751684
70	0x3c7c6820	0.015405685
71	0xbc6124b0	-0.013741657
72	0x3de0f0b7	0.10983413
73	0xbd5b2dce	-0.05351048
74	0x3c458072	0.0120545495
75	0xbd322ce9	-0.04349986
76	0x3d8b7d95	0.06811062
77	0x3d3022b3	0.04300184
78	0xbd0244a4	-0.031803742
79	0x3d07e14f	0.033173855
80	0xbd0d004f	-0.034424122
81	0x3cdec820	0.027195036
82	0xbdad47d9	-0.084609695
83	0xb9c358dd	-0.00037259507
84	0xbb158a8f	-0.0022818183
85	0xbc3a67a4	-0.011377249
86	0xbcda6dd0	-0.02666369
87	0x3da71286	0.0815783
88	0x3d2b4e02	0.04182244
89	0xbe137c76	-0.14402947
90	0xbbb42e7e	-0.0054987064
91	0xbc602382	-0.013680341
92	0x3c783fce	0.015151931
93	0x3deab2f6	0.11459915
94	0x3cd017ec	0.025402032
95	0xbd237f15	-0.039916117
96	0xbcd5ab64	-0.026082702
97	0x3c8691c7	0.016426934
98	0xbc6cd220	-0.014454395
99	0xbc999773	-0.018748974
100	0x3d0d00c6	0.034424566
101	0xbc49c6e0	-0.012315482
102	0xbd1bd29b	-0.038042646
103	0x3c89b297	0.016808791
104	0x3c3f1685	0.011663084
105	0xbc9d86de	-0.019229349
106	0x3d331c6f	0.04372829
107	0x3dc60976	0.09669773
108	0x3d16b774	0.03679605
109	0x3c7e0d00	0.015506029
110	0xbd572eaf	-0.052534755
111	0xbe0c186d	-0.13681193
112	0xbd0cd2bc	-0.03438066
113	0x3ce8e95e	0.02843159
114	0xbd05277e	-0.032508366
115	0xbc04f26e	-0.00811444
116	0x3d6d122b	0.057878654
117	0xbd1d9acc	-0.038477704
118	0x3d54ad7a	0.051923253
119	0x3ca9b656	0.020716827
120	0x3d3ecb20	0.046580434
121	0xbc85878f	-0.016299991
122	0x3d03bc15	0.03216179
123	0x3d61d576	0.055135213
124	0xbd88b6e5	-0.06675509
125	0xbd2e97c2	-0.042625196
126	0xbce92c0a	-0.028463382
127	0xbd89d521	-0.06730104
128	0x3d328471	0.043583337
129	0x3ca0f10b	0.019646188
130	0x3bc0bdc5	0.0058819973
131	0x3d94a1ee	0.07257448
132	0x3d0351e3	0.032060515
133	0x3c82305f	0.015892206
134	0x3c01d80e	0.007925047
135	0xbc878e12	-0.016547237
136	0xbd026a50	-0.03183967
137	0x3c381fe5	0.011238073
138	0xbd029dc7	-0.03188875
139	0xbd899360	-0.06717563
140	0x3d432297	0.04764041
141	0xbda687d7	-0.08131378
142	0xbd5facb2	-0.054608054
143	0x3ca42eb9	0.02004181
144	0x3cf5b733	0.029994583
145	0xbcf9e51a	-0.030504752
146	0x3c091b5c	0.008368339
147	0xbce580cf	-0.028015522
148	0x3d0e7cfd	0.034787167
149	0xb8809f50	-6.13319e-05
150	0x3c65b333	0.014019775
151	0xbc3dcdec	-0.01158474
152	0xbc8be005	-0.017074594
153	0xbb7bef71	-0.0038442279
154	0xbb9dda38	-0.0048172735
155	0x3d3a77e4	0.045524493
156	0xbcf93e5f	-0.030425249
157	0xbd0f2279	-0.034944985
158	0xbd85bf83	-0.065306686
159	0xbc11465b	-0.008866872
160	0x3c36ca95	0.011156698
161	0x3d087aaf	0.033320125
162	0xbcb6420d	-0.022248292
163	0x3badcb2f	0.0053037624
164	0x3b3d1c09	0.0028855822
165	0xbe0acccf	-0.13554691
166	0x3d368cc6	0.044567846
167	0xbc4a927a	-0.012364024
168	0x3c19c5c2	0.009385528
169	0x3c254291	0.010086671
170	0x3ab47c98	0.0013770042
171	0x3a78d9d4	0.0009492908
172	0x3de48b51	0.11159385
173	0x3c923ab9	0.017850267
174	0x3beb7428	0.0071854778
175	0xbce2d217	-0.02768807
176	0xbd694646	-0.056951784
177	0xbbddec77	-0.0067725736
178	0x3d2dbac9	0.04241446
179	0xbc03287d	-0.008005259
180	0x3d3bda66	0.045862578
181	0x3d8fd73f	0.07023477
182	0x3d0ff387	0.035144355
183	0xbd83e85b	-0.06440803
184	0x3dcb1936	0.09916918
185	0x3c4a379d	0.012342361
186	0xbddd3837	-0.10801738
187	0x3c322745	0.01087362
188	0xbd4447d6	-0.04792007
189	0xbd98c0c6	-0.074586436
190	0xbcfd2fc1	-0.03090656
191	0xbca1e163	-0.019760793
192	0x3d393ecd	0.045225907
193	0x3c98759c	0.018610768
194	0xbccc50bc	-0.02494084
195	0xbd707bd9	-0.05871186
196	0xbd59e1e3	-0.053193938
197	0xbc7ba870	-0.015359983
198	0x3c9fe205	0.019516954
199	0xbda54bcf	-0.080711
200	0x3a0faec5	0.000548106
201	0xbc8f6510	-0.017504245
202	0xbcd9ac26	-0.026571345
203	0x3cbcc192	0.02304152
204	0x3bcdf065	0.006284761
205	0x3c79f33b	0.015255745
206	0x3d2202bf	0.0395534
207	0x3db4741e	0.0881121
208	0x3dc1fbe3	0.09471872
209	0xbca080d6	-0.019592684
210	0x3ceffb3d	0.029294604
211	0xbc52f015	-0.012874623
212	0xbd33757f	-0.043813225
213	0x3cbc53af	0.022989122
214	0x3e01145c	0.12605423
215	0xbc584d02	-0.013201954
216	0x3bdd4768	0.006752897
217	0x3c43a9ab	0.011942307
218	0xbcb58e3c	-0.02216255
219	0xbd3b534e	-0.045733742
220	0xbd550d3e	-0.05201458
221	0xbd3d5d17	-0.046231356
222	0xbd859747	-0.065229945
223	0x3a9a9a3c	0.0011795233
224	0xbbd6b51b	-0.006552351
225	0xba0d01cf	-0.00053789926
226	0xbdd40b1c	-0.103536814
227	0xbdd941ca	-0.106082514
228	0x3b3b9e60	0.0028628334
229	0x3d3c2d4d	0.04594164
230	0xbcd5cc92	-0.026098523
231	0x3d8e4304	0.06946376
232	0x3cf4d448	0.02988638
233	0xbd0fa405	-0.03506853
234	0x3b8b35a3	0.0042483374
235	0xbc36369b	-0.011121417
236	0x3cb09135	0.021553615
237	0xbd12c170	-0.035829008
238	0x3db6b841	0.089218624
239	0xbc264d93	-0.010150331
240	0x3be954a1	0.0071206843
241	0x3d1fc031	0.039001647
242	0xbd695463	-0.056965243
243	0x3cfb7081	0.030693294
244	0x3b637e63	0.0034712784
245	0x3cc77325	0.024346897
246	0x3d979a09	0.07402427
247	0xbb545912	-0.0032401723
248	0x3a9d5a9a	0.0012005151
249	0xbcb8f368	-0.022577003
250	0x3bc57deb	0.0060269735
251	0x3a615648	0.0008595926
252	0xbd7d9b0f	-0.061915454
253	0xbd1e7f4d	-0.038695622
254	0x3c7f2873	0.015573609
255	0xbc75e56d	-0.015008313

fc1.bias f4 [50]
0	0x3d4379a2	0.04772342
1	0xbb3a15db	-0.0028394375
2	0xbd73b181	-0.059495453
3	0x3da86de9	0.08224089
4	0xbd28dc7c	-0.041225895
5	0xbcf2c0f3	-0.029633021
6	0xbaebf76d	-0.0018002816
7	0xbcb17d48	-0.021666184
8	0x3a55719f	0.0008142236
9	0xbcd50af5	-0.026006201
10	0x3d8786b3	0.06617489
11	0x3d42a170	0.04751724
12	0x3cb21034	0.021736242
13	0x3c1e9f96	0.009681603
14	0x3dd324c7	0.10309749
15	0x3d815c5f	0.063164465
16	0x3d043f03	0.032286655
17	0xbccd4a4f	-0.025059847
18	0xbd73d396	-0.059527956
19	0x3d718b79	0.058970902
20	0x3bce3147	0.0062924954
21	0x3d224629	0.03961769
22	0x3d27f628	0.041006237
23	0x3b8ad7e6	0.004237163
24	0xbd4a7f14	-0.049437597
25	0x3ca48849	0.020084517
26	0xba7314b1	-0.00092727976
27	0x3d84fb61	0.06493259
28	0x3bb951e9	0.0056555164
29	0xbca4f3e7	-0.020135833
30	0xbbed74f6	-0.007246609
31	0x3d32b60e	0.043630652
32	0x3dc070be	0.09396504
33	0x3dab9cee	0.08379541
34	0x3d9139f1	0.070911296
35	0xbd058380	-0.03259611
36	0x3c3aa244	0.011391226
37	0x3c7ab967	0.015302992
38	0xbd07feb9	-0.033201907
39	0x3af8de17	0.0018987086
40	0x3ca79ecd	0.020461464
41	0x3d43dc88	0.047817737
42	0xbcd0be74	-0.02548144
43	0x3cda07db	0.026615074
44	0x3b0e8602	0.0021747355
45	0xbca8264e	-0.020526078
46	0xbcc64d84	-0.024206884
47	0x3d567f63	0.05236758
48	0xbd1edac3	-0.038782846
49	0x3c71175d	0.014715043

fc2.weight f4 [10, 50]
0	0xbe0749ef	-0.13211797
1	0xbcf907d2	-0.030399237
2	0x3c9c5138	0.019081697
3	0xbe43c71e	-0.19118926
4	0xbded2c9a	-0.11580773
5	0x3d8b6e52	0.06808151
6	0xbe3eef61	-0.18646003
7	0x3e16e937	0.14737402
8	0x3d0125cc	0.031530187
9	0xbda8e7f4	-0.082473665
10	0x3e879b76	0.26485795
11	0x3db11cc2	0.08648063
12	0xbd184568	-0.037175566
13	0x3e3bed8d	0.18352337
14	0xbe4169e9	-0.18888058
15	0xbe22f463	-0.15913539
16	0x3d2c773a	0.04210589
17	0xbe29d291	-0.16584231
18	0x3e074a44	0.13211924
19	0xbe484fe1	-0.19561721
20	0x3e418753	0.18899278
21	0x3d436df0	0.047712266
22	0x3e54b49a	0.20772019
23	0x3e10238b	0.14076059
24	0x3e0f3429	0.13984741
25	0x3d742b33	0.05961151
26	0xbd999228	-0.0749858
27	0xbe358e3e	-0.17730042
28	0xbe4064f2	-0.18788508
29	0x3e016e36	0.12639698
30	0xbe2739ef	-0.16330694
31	0xbe76711d	-0.24066587
32	0xbe2bc9aa	-0.16776147
33	0xbe1bd960	-0.1521964
34	0xbde88d24	-0.113550454
35	0xbe129cd2	-0.14317635
36	0xbe1d83b8	-0.15382278
37	0xbe678057	-0.22607552
38	0x3e384171	0.17993714
39	0xbd3e6476	-0.046482526
40	0x3d455f65	0.04818668
41	0xbe28e190	-0.16492295
42	0x3df2f4af	0.11863076
43	0x3dd54f54	0.10415521
44	0xbe247da1	-0.16063549
45	0x3e24a0ee	0.16077015
46	0x3df8461f	0.121227495
47	0x3dbd2c58	0.092369735
48	0x3e270cd7	0.16313492
49	0xbe3c85dd	-0.1841044
50	0x3bb8bf66	0.005638051
51	0x3d61a409	0.055088077
52	0xbe050a46	-0.129922
53	0x3e108ff2	0.14117411
54	0xbdc9ae95	-0.09847752
55	0x3ced721c	0.028985076
56	0x3e4010ae	0.18756363
57	0xbdbf122b	-0.09329637
58	0x3e9b4740	0.30327797
59	0xbe6a93fb	-0.22908013
60	0x3e454aa6	0.19266757
61	0x3e398369	0.18116535
62	0x3e83e388	0.2575953
63	0x3d165801	0.03670502
64	0x3e297e9c	0.16552204
65	0x3e2fbc1a	0.17161599
66	0xbc31b804	-0.010847095
67	0x3e38d40a	0.18049636
68	0xbe2cd626	-0.16878566
69	0x3e08f641	0.13375188
70	0x3e5be63d	0.21474548
71	0xbe4ca1f4	-0.19983655
72	0x3d22448f	0.039616164
73	0xbdfcb8e8	-0.123399556
74	0xbdab660e	-0.08369075
75	0xbe1f7c1e	-0.1557469
76	0xbe098bb2	-0.13432196
77	0xbe5655c3	-0.20931153
78	0x3e53bf4c	0.20678443
79	0xbdb618dc	-0.0889146
80	0xbe5f149e	-0.21785209
81	0x3df634ca	0.120217875
82	0x3e05d274	0.13068563
83	0x3e40befc	0.18822855
84	0x3e08a453	0.13343935
85	0x3e4674ad	0.19380446
86	0x3e3666bd	0.17812629
87	0x3e440374	0.19141942
88	0xbdc8a886	-0.09797768
89	0xbe042b87	-0.1290723
90	0xbe100532	-0.14064482
91	0xbe3df383	-0.18549924
92	0xbe9edd76	-0.31028336
93	0xbd80a01b	-0.06280538
94	0xbe8b223c	-0.27174556
95	0xbd86a622	-0.06574656
96	0xbe7cef87	-0.24700747
97	0xbe343414	-0.17597991
98	0xbe089ee6	-0.13341865
99	0xbe7b3ddd	-0.24535318
100	0x3d9c6419	0.076362796
101	0xbb9ee5cc	-0.0048491713
102	0x3d835cf1	0.064142115
103	0xbe94ff5f	-0.29101083
104	0x3dcde9ec	0.10054383
105	0x3c87f413	0.016595876
106	0x3e4cef52	0.20013168
107	0xbd1c30ef	-0.038132604
108	0xbcef6532	-0.029223058
109	0xbe1eee64	-0.15520626
110	0xbc692f72	-0.014232503
111	0x3d575ac3	0.05257679
112	0x3dbbbe0a	0.091671064
113	0x3e5cb573	0.21553592
114	0xbe86f42f	-0.26358172
115	0x3cc82f23	0.024436539
116	0xbdc23655	-0.09483019
117	0x3e5205a5	0.20509966
118	0xbd49aed1	-0.049238984
119	0x3e60175e	0.21883914
120	0xbda216d7	-0.079145126
121	0xbe10d1d3	-0.14142542
122	0xbd9a23b2	-0.075263396
123	0x3e1989a1	0.14993908
124	0xbd50a620	-0.05093968
125	0x3d91134f	0.07083761
126	0x3e3ca2b3	0.1842144
127	0xbbcae1a8	-0.006191451
128	0x3e25effd	0.1620483
129	0x3df30d61	0.11867786
130	0xbe667a57	-0.22507606
131	0xbb025472	-0.001988676
132	0xbe5b7036	-0.21429524
133	0xbd3a7794	-0.045524195
134	0x3e25ee40	0.16204166
135	0x3e4f9e78	0.20275295
136	0xbe442b7d	-0.19157214
137	0x3e3def1b	0.18548243
138	0x3de45884	0.111496955
139	0x3d914120	0.070925
140	0x3dda100a	0.106475905
141	0xbe513294	-0.2042945
142	0x3df1ad04	0.11800578
143	0xbbdbb61a	-0.006705058
144	0xbe2ae3a7	-0.16688405
145	0x3db358a0	0.08757138
146	0xbe85a763	-0.26104268
147	0xbdfc9e80	-0.12334919
148	0x3e2354c0	0.15950298
149	0xbe05363b	-0.13008969
150	0x3cf210ff	0.02954912
151	0xbd26d05c	-0.04072605
152	0xbc8e4082	-0.017364744
153	0x3e032f0c	0.12810916
154	0x3e2cade7	0.16863213
155	0x3d6b6277	0.05746695
156	0xbbd05bab	-0.006358584
157	0xbe2b62f9	-0.16736974
158	0xbd405323	-0.046954285
159	0x3e5ad339	0.21369638
160	0x3c9f0882	0.019413237
161	0xbbc2c406	-0.005943778
162	0xbe336483	-0.17518811
163	0x3e401935	0.18759616
164	0xbdae1c26	-0.08501463
165	0x3e2300f4	0.15918332
166	0x3d77420f	0.060365733
167	0x3e34b8c4	0.17648607
168	0xbd820800	-0.06349182
169	0x3e2e3762	0.17013314
170	0xbe5252d7	-0.20539413
171	0xbdc8db62	-0.09807469
172	0x3c0449ae	0.008074207
173	0x3dacb203	0.084323905
174	0x3e21e739	0.1581086
175	0x3db2dd9b	0.08733674
176	0xbe2bd34e	-0.16779825
177	0x3deeb5a1	0.11655737
178	0xbe5292b4	-0.20563775
179	0xbe0872c3	-0.13325028
180	0x3deae829	0.11470062
181	0xbe49bcd7	-0.19700943
182	0xbd06b8b3	-0.032890987
183	0xbe3273d0	-0.17426991
184	0x3e11c91d	0.14236875
185	0x3e42cc7b	0.19023316
186	0xbde557ea	-0.11198409
187	0x3de37e9f	0.111081354
188	0xbe1dee23	-0.15422873
189	0x3d4d3b40	0.050105333
190	0x3e0d1faf	0.13781618
191	0xbddc60aa	-0.10760625
192	0xbdbe5b2d	-0.09294734
193	0xbe447843	-0.19186501
194	0x3e05c065	0.13061674
195	0xbe204062	-0.1564956
196	0xbdf9e68b	-0.12202176
197	0x3dcea289	0.10089595
198	0xbe3a85d7	-0.18215118
199	0xbdf7cde4	-0.120998174
200	0x3e6c2480	0.23060799
201	0x3ea00af2	0.3125835
202	0xbdbd1549	-0.092325754
203	0x3dceed52	0.10103859
204	0xbe12f57a	-0.14351454
205	0x3c312d62	0.010814043
206	0xbd36a233	-0.04458828
207	0xbdf87d5d	-0.12133286
208	0x3ea0061f	0.3125467
209	0x3d3c4954	0.04596837
210	0xbe0d8541	-0.13820364
211	0x3d60b9db	0.054864746
212	0xbd55d98d	-0.052209426
213	0x3ddcb46c	0.107766
214	0xbe118b23	-0.14213233
215	0xbe3a3133	-0.1818283
216	0xbe1cfb00	-0.15330124
217	0xbc291bb0	-0.010321543
218	0xbe8152ff	-0.25258633
219	0xbd785d42	-0.060635813
220	0xbe1487ad	-0.14504881
221	0x3df11c62	0.11772992
222	0xbc7a38b2	-0.015272306
223	0xbe2402de	-0.16016719
224	0xbd985625	-0.07438306
225	0xbe90bad6	-0.28267545
226	0x3e6a981d	0.22909589
227	0x3e294e1a	0.165337
228	0x3e654b81	0.22392084
229	0x3d8abc30	0.06774175
230	0x3d850f7b	0.06497093
231	0x3e35c385	0.17750366
232	0x3db62071	0.088929065
233	0x3e8182a2	0.25294977
234	0xbd7ffe32	-0.06249828
235	0xbe05bdce	-0.13060686
236	0xbe1be2df	-0.15223263
237	0x3bfb3c95	0.007667134
238	0x3d7f4b38	0.062327594
239	0xbe0b2b1c	-0.13590664
240	0xbe87ae77	-0.26500294
241	0x3e2303f1	0.15919472
242	0x3e256c9c	0.16154712
243	0xbe1773b7	-0.14790235
244	0x3e4e7334	0.20161134
245	0xbe00e11f	-0.12585877
246	0xbe0dd4a8	-0.13850653
247	0xbdf0d80a	-0.11759956
248	0xbbd838e8	-0.0065985806
249	0x3e4315c4	0.19051272
250	0xbdcc2f7c	-0.099699944
251	0xbd25c753	-0.040473294
252	0xbda8619a	-0.08221741
253	0x3e3719e6	0.17880973
254	0x3cd67da7	0.026182963
255	0x3e048fd2	0.12945488

fc2.bias f4 [10]
0	0x3dc371fe	0.09543227
1	0x3e16bc99	0.14720382
2	0xbe384aee	-0.17997333
3	0xbc75961d	-0.014989403
4	0x3c8435a5	0.016138861
5	0xbb979137	-0.0046254653
6	0x3d7f0189	0.062257323
7	0xbe2dec5d	-0.16984697
8	0x3e1fa09d	0.15588613
9	0x3c80737f	0.015680073
